{"format": "graph-model", "generatedBy": "2.13.1", "convertedBy": "TensorFlow.js Converter v3.6.0", "signature": {"outputs": {"Identity:0": {"name": "Identity:0"}}}, "modelTopology": {"node": [{"name": "ConstantFolding/PartitionedCall/PartitionedCall/PartitionedCall/tf.math.divide/truediv_recip", "op": "Const", "attr": {"dtype": {"type": "DT_FLOAT"}, "value": {"tensor": {"dtype": "DT_FLOAT", "tensorShape": {"dim": [{"size": "1"}, {"size": "1"}, {"size": "1"}]}}}}}, {"name": "23200", "op": "Const", "attr": {"dtype": {"type": "DT_FLOAT"}, "value": {"tensor": {"dtype": "DT_FLOAT", "tensorShape": {"dim": [{"size": "1"}, {"size": "2"}, {"size": "8400"}]}}}}}, {"name": "23192", "op": "Const", "attr": {"dtype": {"type": "DT_INT64"}, "value": {"tensor": {"dtype": "DT_INT64", "tensorShape": {"dim": [{"size": "3"}]}}}}}, {"name": "23194", "op": "Const", "attr": {"value": {"tensor": {"dtype": "DT_INT64", "tensorShape": {"dim": [{"size": "3"}]}}}, "dtype": {"type": "DT_INT64"}}}, {"name": "PartitionedCall/PartitionedCall/PartitionedCall/tf.strided_slice_19/ones_like", "op": "Const", "attr": {"value": {"tensor": {"dtype": "DT_INT64", "tensorShape": {"dim": [{"size": "3"}]}}}, "dtype": {"type": "DT_INT64"}}}, {"name": "23202", "op": "Const", "attr": {"dtype": {"type": "DT_FLOAT"}, "value": {"tensor": {"dtype": "DT_FLOAT", "tensorShape": {"dim": [{"size": "1"}, {"size": "2"}, {"size": "8400"}]}}}}}, {"name": "23186", "op": "Const", "attr": {"value": {"tensor": {"dtype": "DT_INT64", "tensorShape": {"dim": [{"size": "3"}]}}}, "dtype": {"type": "DT_INT64"}}}, {"name": "23188", "op": "Const", "attr": {"value": {"tensor": {"dtype": "DT_INT64", "tensorShape": {"dim": [{"size": "3"}]}}}, "dtype": {"type": "DT_INT64"}}}, {"name": "PartitionedCall/PartitionedCall/PartitionedCall/tf.strided_slice_16/StridedSlice/strides", "op": "Const", "attr": {"dtype": {"type": "DT_INT64"}, "value": {"tensor": {"dtype": "DT_INT64", "tensorShape": {"dim": [{"size": "3"}]}}}}}, {"name": "PartitionedCall/PartitionedCall/PartitionedCall/tf.reshape_3/Reshape/shape", "op": "Const", "attr": {"value": {"tensor": {"dtype": "DT_INT32", "tensorShape": {"dim": [{"size": "4"}]}}}, "dtype": {"type": "DT_INT32"}}}, {"name": "PartitionedCall/PartitionedCall/PartitionedCall/tf.compat.v1.transpose_4/transpose/perm", "op": "Const", "attr": {"value": {"tensor": {"dtype": "DT_INT32", "tensorShape": {"dim": [{"size": "4"}]}}}, "dtype": {"type": "DT_INT32"}}}, {"name": "PartitionedCall/PartitionedCall/PartitionedCall/tf.compat.v1.transpose_5/transpose/perm", "op": "Const", "attr": {"dtype": {"type": "DT_INT32"}, "value": {"tensor": {"dtype": "DT_INT32", "tensorShape": {"dim": [{"size": "4"}]}}}}}, {"name": "23190", "op": "Const", "attr": {"value": {"tensor": {"dtype": "DT_FLOAT", "tensorShape": {"dim": [{"size": "1"}, {"size": "1"}, {"size": "16"}, {"size": "1"}]}}}, "dtype": {"type": "DT_FLOAT"}}}, {"name": "PartitionedCall/PartitionedCall/PartitionedCall/tf.compat.v1.transpose_8/transpose/perm", "op": "Const", "attr": {"value": {"tensor": {"dtype": "DT_INT32", "tensorShape": {"dim": [{"size": "4"}]}}}, "dtype": {"type": "DT_INT32"}}}, {"name": "PartitionedCall/PartitionedCall/PartitionedCall/tf.reshape_4/Reshape/shape", "op": "Const", "attr": {"value": {"tensor": {"dtype": "DT_INT32", "tensorShape": {"dim": [{"size": "3"}]}}}, "dtype": {"type": "DT_INT32"}}}, {"name": "23196", "op": "Const", "attr": {"value": {"tensor": {"dtype": "DT_INT64", "tensorShape": {"dim": [{"size": "3"}]}}}, "dtype": {"type": "DT_INT64"}}}, {"name": "23198", "op": "Const", "attr": {"value": {"tensor": {"dtype": "DT_INT64", "tensorShape": {"dim": [{"size": "3"}]}}}, "dtype": {"type": "DT_INT64"}}}, {"name": "PartitionedCall/PartitionedCall/PartitionedCall/tf.strided_slice_18/ones_like", "op": "Const", "attr": {"dtype": {"type": "DT_INT64"}, "value": {"tensor": {"dtype": "DT_INT64", "tensorShape": {"dim": [{"size": "3"}]}}}}}, {"name": "PartitionedCall/PartitionedCall/PartitionedCall/tf.concat_17/concat/axis", "op": "Const", "attr": {"dtype": {"type": "DT_INT32"}, "value": {"tensor": {"dtype": "DT_INT32", "tensorShape": {}}}}}, {"name": "PartitionedCall/PartitionedCall/PartitionedCall/tf.math.multiply_195/Mul/y", "op": "Const", "attr": {"value": {"tensor": {"dtype": "DT_FLOAT", "tensorShape": {"dim": [{"size": "1"}, {"size": "1"}, {"size": "8400"}]}}}, "dtype": {"type": "DT_FLOAT"}}}, {"name": "23124", "op": "Const", "attr": {"value": {"tensor": {"dtype": "DT_FLOAT", "tensorShape": {"dim": [{"size": "3"}, {"size": "3"}, {"size": "64"}, {"size": "64"}]}}}, "dtype": {"type": "DT_FLOAT"}}}, {"name": "23136", "op": "Const", "attr": {"value": {"tensor": {"dtype": "DT_FLOAT", "tensorShape": {"dim": [{"size": "64"}]}}}, "dtype": {"type": "DT_FLOAT"}}}, {"name": "23148", "op": "Const", "attr": {"value": {"tensor": {"dtype": "DT_FLOAT", "tensorShape": {"dim": [{"size": "3"}, {"size": "3"}, {"size": "64"}, {"size": "64"}]}}}, "dtype": {"type": "DT_FLOAT"}}}, {"name": "23160", "op": "Const", "attr": {"value": {"tensor": {"dtype": "DT_FLOAT", "tensorShape": {"dim": [{"size": "64"}]}}}, "dtype": {"type": "DT_FLOAT"}}}, {"name": "23172", "op": "Const", "attr": {"dtype": {"type": "DT_FLOAT"}, "value": {"tensor": {"dtype": "DT_FLOAT", "tensorShape": {"dim": [{"size": "1"}, {"size": "1"}, {"size": "64"}, {"size": "64"}]}}}}}, {"name": "23182", "op": "Const", "attr": {"dtype": {"type": "DT_FLOAT"}, "value": {"tensor": {"dtype": "DT_FLOAT", "tensorShape": {"dim": [{"size": "64"}]}}}}}, {"name": "23122", "op": "Const", "attr": {"dtype": {"type": "DT_FLOAT"}, "value": {"tensor": {"dtype": "DT_FLOAT", "tensorShape": {"dim": [{"size": "3"}, {"size": "3"}, {"size": "64"}, {"size": "64"}]}}}}}, {"name": "23134", "op": "Const", "attr": {"value": {"tensor": {"dtype": "DT_FLOAT", "tensorShape": {"dim": [{"size": "64"}]}}}, "dtype": {"type": "DT_FLOAT"}}}, {"name": "23146", "op": "Const", "attr": {"dtype": {"type": "DT_FLOAT"}, "value": {"tensor": {"dtype": "DT_FLOAT", "tensorShape": {"dim": [{"size": "3"}, {"size": "3"}, {"size": "64"}, {"size": "64"}]}}}}}, {"name": "23158", "op": "Const", "attr": {"value": {"tensor": {"dtype": "DT_FLOAT", "tensorShape": {"dim": [{"size": "64"}]}}}, "dtype": {"type": "DT_FLOAT"}}}, {"name": "23170", "op": "Const", "attr": {"value": {"tensor": {"dtype": "DT_FLOAT", "tensorShape": {"dim": [{"size": "1"}, {"size": "1"}, {"size": "64"}, {"size": "5"}]}}}, "dtype": {"type": "DT_FLOAT"}}}, {"name": "23184", "op": "Const", "attr": {"value": {"tensor": {"dtype": "DT_FLOAT", "tensorShape": {"dim": [{"size": "5"}]}}}, "dtype": {"type": "DT_FLOAT"}}}, {"name": "PartitionedCall/PartitionedCall/PartitionedCall/tf.concat_10/concat/axis", "op": "Const", "attr": {"value": {"tensor": {"dtype": "DT_INT32", "tensorShape": {}}}, "dtype": {"type": "DT_INT32"}}}, {"name": "PartitionedCall/PartitionedCall/PartitionedCall/tf.compat.v1.transpose/transpose/perm", "op": "Const", "attr": {"value": {"tensor": {"dtype": "DT_INT32", "tensorShape": {"dim": [{"size": "4"}]}}}, "dtype": {"type": "DT_INT32"}}}, {"name": "PartitionedCall/PartitionedCall/PartitionedCall/tf.reshape/Reshape/shape", "op": "Const", "attr": {"dtype": {"type": "DT_INT32"}, "value": {"tensor": {"dtype": "DT_INT32", "tensorShape": {"dim": [{"size": "3"}]}}}}}, {"name": "23120", "op": "Const", "attr": {"value": {"tensor": {"dtype": "DT_FLOAT", "tensorShape": {"dim": [{"size": "3"}, {"size": "3"}, {"size": "128"}, {"size": "64"}]}}}, "dtype": {"type": "DT_FLOAT"}}}, {"name": "23132", "op": "Const", "attr": {"value": {"tensor": {"dtype": "DT_FLOAT", "tensorShape": {"dim": [{"size": "64"}]}}}, "dtype": {"type": "DT_FLOAT"}}}, {"name": "23144", "op": "Const", "attr": {"dtype": {"type": "DT_FLOAT"}, "value": {"tensor": {"dtype": "DT_FLOAT", "tensorShape": {"dim": [{"size": "3"}, {"size": "3"}, {"size": "64"}, {"size": "64"}]}}}}}, {"name": "23156", "op": "Const", "attr": {"value": {"tensor": {"dtype": "DT_FLOAT", "tensorShape": {"dim": [{"size": "64"}]}}}, "dtype": {"type": "DT_FLOAT"}}}, {"name": "23168", "op": "Const", "attr": {"value": {"tensor": {"dtype": "DT_FLOAT", "tensorShape": {"dim": [{"size": "1"}, {"size": "1"}, {"size": "64"}, {"size": "64"}]}}}, "dtype": {"type": "DT_FLOAT"}}}, {"name": "23178", "op": "Const", "attr": {"value": {"tensor": {"dtype": "DT_FLOAT", "tensorShape": {"dim": [{"size": "64"}]}}}, "dtype": {"type": "DT_FLOAT"}}}, {"name": "23118", "op": "Const", "attr": {"dtype": {"type": "DT_FLOAT"}, "value": {"tensor": {"dtype": "DT_FLOAT", "tensorShape": {"dim": [{"size": "3"}, {"size": "3"}, {"size": "128"}, {"size": "64"}]}}}}}, {"name": "23130", "op": "Const", "attr": {"dtype": {"type": "DT_FLOAT"}, "value": {"tensor": {"dtype": "DT_FLOAT", "tensorShape": {"dim": [{"size": "64"}]}}}}}, {"name": "23142", "op": "Const", "attr": {"dtype": {"type": "DT_FLOAT"}, "value": {"tensor": {"dtype": "DT_FLOAT", "tensorShape": {"dim": [{"size": "3"}, {"size": "3"}, {"size": "64"}, {"size": "64"}]}}}}}, {"name": "23154", "op": "Const", "attr": {"value": {"tensor": {"dtype": "DT_FLOAT", "tensorShape": {"dim": [{"size": "64"}]}}}, "dtype": {"type": "DT_FLOAT"}}}, {"name": "23166", "op": "Const", "attr": {"value": {"tensor": {"dtype": "DT_FLOAT", "tensorShape": {"dim": [{"size": "1"}, {"size": "1"}, {"size": "64"}, {"size": "5"}]}}}, "dtype": {"type": "DT_FLOAT"}}}, {"name": "23180", "op": "Const", "attr": {"dtype": {"type": "DT_FLOAT"}, "value": {"tensor": {"dtype": "DT_FLOAT", "tensorShape": {"dim": [{"size": "5"}]}}}}}, {"name": "PartitionedCall/PartitionedCall/PartitionedCall/tf.concat_13/concat/axis", "op": "Const", "attr": {"value": {"tensor": {"dtype": "DT_INT32", "tensorShape": {}}}, "dtype": {"type": "DT_INT32"}}}, {"name": "PartitionedCall/PartitionedCall/PartitionedCall/tf.compat.v1.transpose_1/transpose/perm", "op": "Const", "attr": {"value": {"tensor": {"dtype": "DT_INT32", "tensorShape": {"dim": [{"size": "4"}]}}}, "dtype": {"type": "DT_INT32"}}}, {"name": "PartitionedCall/PartitionedCall/PartitionedCall/tf.reshape_1/Reshape/shape", "op": "Const", "attr": {"dtype": {"type": "DT_INT32"}, "value": {"tensor": {"dtype": "DT_INT32", "tensorShape": {"dim": [{"size": "3"}]}}}}}, {"name": "23116", "op": "Const", "attr": {"dtype": {"type": "DT_FLOAT"}, "value": {"tensor": {"dtype": "DT_FLOAT", "tensorShape": {"dim": [{"size": "3"}, {"size": "3"}, {"size": "256"}, {"size": "64"}]}}}}}, {"name": "23128", "op": "Const", "attr": {"dtype": {"type": "DT_FLOAT"}, "value": {"tensor": {"dtype": "DT_FLOAT", "tensorShape": {"dim": [{"size": "64"}]}}}}}, {"name": "23140", "op": "Const", "attr": {"value": {"tensor": {"dtype": "DT_FLOAT", "tensorShape": {"dim": [{"size": "3"}, {"size": "3"}, {"size": "64"}, {"size": "64"}]}}}, "dtype": {"type": "DT_FLOAT"}}}, {"name": "23152", "op": "Const", "attr": {"dtype": {"type": "DT_FLOAT"}, "value": {"tensor": {"dtype": "DT_FLOAT", "tensorShape": {"dim": [{"size": "64"}]}}}}}, {"name": "23164", "op": "Const", "attr": {"dtype": {"type": "DT_FLOAT"}, "value": {"tensor": {"dtype": "DT_FLOAT", "tensorShape": {"dim": [{"size": "1"}, {"size": "1"}, {"size": "64"}, {"size": "64"}]}}}}}, {"name": "23174", "op": "Const", "attr": {"dtype": {"type": "DT_FLOAT"}, "value": {"tensor": {"dtype": "DT_FLOAT", "tensorShape": {"dim": [{"size": "64"}]}}}}}, {"name": "23106", "op": "Const", "attr": {"value": {"tensor": {"dtype": "DT_INT64", "tensorShape": {"dim": [{"size": "4"}]}}}, "dtype": {"type": "DT_INT64"}}}, {"name": "23108", "op": "Const", "attr": {"dtype": {"type": "DT_INT64"}, "value": {"tensor": {"dtype": "DT_INT64", "tensorShape": {"dim": [{"size": "4"}]}}}}}, {"name": "PartitionedCall/PartitionedCall/PartitionedCall/tf.strided_slice_14/ones_like", "op": "Const", "attr": {"dtype": {"type": "DT_INT64"}, "value": {"tensor": {"dtype": "DT_INT64", "tensorShape": {"dim": [{"size": "4"}]}}}}}, {"name": "23076", "op": "Const", "attr": {"dtype": {"type": "DT_INT64"}, "value": {"tensor": {"dtype": "DT_INT64", "tensorShape": {"dim": [{"size": "4"}]}}}}}, {"name": "23078", "op": "Const", "attr": {"value": {"tensor": {"dtype": "DT_INT64", "tensorShape": {"dim": [{"size": "4"}]}}}, "dtype": {"type": "DT_INT64"}}}, {"name": "PartitionedCall/PartitionedCall/PartitionedCall/tf.strided_slice_12/ones_like", "op": "Const", "attr": {"dtype": {"type": "DT_INT64"}, "value": {"tensor": {"dtype": "DT_INT64", "tensorShape": {"dim": [{"size": "4"}]}}}}}, {"name": "23046", "op": "Const", "attr": {"value": {"tensor": {"dtype": "DT_INT64", "tensorShape": {"dim": [{"size": "4"}]}}}, "dtype": {"type": "DT_INT64"}}}, {"name": "23048", "op": "Const", "attr": {"value": {"tensor": {"dtype": "DT_INT64", "tensorShape": {"dim": [{"size": "4"}]}}}, "dtype": {"type": "DT_INT64"}}}, {"name": "PartitionedCall/PartitionedCall/PartitionedCall/tf.strided_slice_10/ones_like", "op": "Const", "attr": {"value": {"tensor": {"dtype": "DT_INT64", "tensorShape": {"dim": [{"size": "4"}]}}}, "dtype": {"type": "DT_INT64"}}}, {"name": "PartitionedCall/PartitionedCall/PartitionedCall/lambda_1/PartitionedCall/wa/model.13/Resize/size", "op": "Const", "attr": {"value": {"tensor": {"dtype": "DT_INT32", "tensorShape": {"dim": [{"size": "2"}]}}}, "dtype": {"type": "DT_INT32"}}}, {"name": "PartitionedCall/PartitionedCall/PartitionedCall/tf.concat_7/concat/axis", "op": "Const", "attr": {"value": {"tensor": {"dtype": "DT_INT32", "tensorShape": {}}}, "dtype": {"type": "DT_INT32"}}}, {"name": "23030", "op": "Const", "attr": {"dtype": {"type": "DT_FLOAT"}, "value": {"tensor": {"dtype": "DT_FLOAT", "tensorShape": {"dim": [{"size": "1"}, {"size": "1"}, {"size": "192"}, {"size": "64"}]}}}}}, {"name": "23032", "op": "Const", "attr": {"dtype": {"type": "DT_FLOAT"}, "value": {"tensor": {"dtype": "DT_FLOAT", "tensorShape": {"dim": [{"size": "64"}]}}}}}, {"name": "23034", "op": "Const", "attr": {"value": {"tensor": {"dtype": "DT_INT64", "tensorShape": {"dim": [{"size": "4"}]}}}, "dtype": {"type": "DT_INT64"}}}, {"name": "23036", "op": "Const", "attr": {"value": {"tensor": {"dtype": "DT_INT64", "tensorShape": {"dim": [{"size": "4"}]}}}, "dtype": {"type": "DT_INT64"}}}, {"name": "PartitionedCall/PartitionedCall/PartitionedCall/tf.strided_slice_11/ones_like", "op": "Const", "attr": {"value": {"tensor": {"dtype": "DT_INT64", "tensorShape": {"dim": [{"size": "4"}]}}}, "dtype": {"type": "DT_INT64"}}}, {"name": "23038", "op": "Const", "attr": {"dtype": {"type": "DT_FLOAT"}, "value": {"tensor": {"dtype": "DT_FLOAT", "tensorShape": {"dim": [{"size": "3"}, {"size": "3"}, {"size": "32"}, {"size": "32"}]}}}}}, {"name": "23040", "op": "Const", "attr": {"value": {"tensor": {"dtype": "DT_FLOAT", "tensorShape": {"dim": [{"size": "32"}]}}}, "dtype": {"type": "DT_FLOAT"}}}, {"name": "23042", "op": "Const", "attr": {"dtype": {"type": "DT_FLOAT"}, "value": {"tensor": {"dtype": "DT_FLOAT", "tensorShape": {"dim": [{"size": "3"}, {"size": "3"}, {"size": "32"}, {"size": "32"}]}}}}}, {"name": "23044", "op": "Const", "attr": {"value": {"tensor": {"dtype": "DT_FLOAT", "tensorShape": {"dim": [{"size": "32"}]}}}, "dtype": {"type": "DT_FLOAT"}}}, {"name": "PartitionedCall/PartitionedCall/PartitionedCall/tf.concat_8/concat/axis", "op": "Const", "attr": {"dtype": {"type": "DT_INT32"}, "value": {"tensor": {"dtype": "DT_INT32", "tensorShape": {}}}}}, {"name": "23050", "op": "Const", "attr": {"dtype": {"type": "DT_FLOAT"}, "value": {"tensor": {"dtype": "DT_FLOAT", "tensorShape": {"dim": [{"size": "1"}, {"size": "1"}, {"size": "96"}, {"size": "64"}]}}}}}, {"name": "23052", "op": "Const", "attr": {"dtype": {"type": "DT_FLOAT"}, "value": {"tensor": {"dtype": "DT_FLOAT", "tensorShape": {"dim": [{"size": "64"}]}}}}}, {"name": "23054", "op": "Const", "attr": {"dtype": {"type": "DT_INT32"}, "value": {"tensor": {"dtype": "DT_INT32", "tensorShape": {"dim": [{"size": "4"}, {"size": "2"}]}}}}}, {"name": "23056", "op": "Const", "attr": {"dtype": {"type": "DT_FLOAT"}, "value": {"tensor": {"dtype": "DT_FLOAT", "tensorShape": {"dim": [{"size": "3"}, {"size": "3"}, {"size": "64"}, {"size": "64"}]}}}}}, {"name": "23058", "op": "Const", "attr": {"dtype": {"type": "DT_FLOAT"}, "value": {"tensor": {"dtype": "DT_FLOAT", "tensorShape": {"dim": [{"size": "64"}]}}}}}, {"name": "23022", "op": "Const", "attr": {"value": {"tensor": {"dtype": "DT_INT64", "tensorShape": {"dim": [{"size": "4"}]}}}, "dtype": {"type": "DT_INT64"}}}, {"name": "23024", "op": "Const", "attr": {"dtype": {"type": "DT_INT64"}, "value": {"tensor": {"dtype": "DT_INT64", "tensorShape": {"dim": [{"size": "4"}]}}}}}, {"name": "PartitionedCall/PartitionedCall/PartitionedCall/tf.strided_slice_8/ones_like", "op": "Const", "attr": {"dtype": {"type": "DT_INT64"}, "value": {"tensor": {"dtype": "DT_INT64", "tensorShape": {"dim": [{"size": "4"}]}}}}}, {"name": "PartitionedCall/PartitionedCall/PartitionedCall/lambda/PartitionedCall/wa/model.10/Resize/size", "op": "Const", "attr": {"dtype": {"type": "DT_INT32"}, "value": {"tensor": {"dtype": "DT_INT32", "tensorShape": {"dim": [{"size": "2"}]}}}}}, {"name": "PartitionedCall/PartitionedCall/PartitionedCall/tf.concat_5/concat/axis", "op": "Const", "attr": {"dtype": {"type": "DT_INT32"}, "value": {"tensor": {"dtype": "DT_INT32", "tensorShape": {}}}}}, {"name": "23006", "op": "Const", "attr": {"dtype": {"type": "DT_FLOAT"}, "value": {"tensor": {"dtype": "DT_FLOAT", "tensorShape": {"dim": [{"size": "1"}, {"size": "1"}, {"size": "384"}, {"size": "128"}]}}}}}, {"name": "23008", "op": "Const", "attr": {"value": {"tensor": {"dtype": "DT_FLOAT", "tensorShape": {"dim": [{"size": "128"}]}}}, "dtype": {"type": "DT_FLOAT"}}}, {"name": "23010", "op": "Const", "attr": {"value": {"tensor": {"dtype": "DT_INT64", "tensorShape": {"dim": [{"size": "4"}]}}}, "dtype": {"type": "DT_INT64"}}}, {"name": "23012", "op": "Const", "attr": {"dtype": {"type": "DT_INT64"}, "value": {"tensor": {"dtype": "DT_INT64", "tensorShape": {"dim": [{"size": "4"}]}}}}}, {"name": "PartitionedCall/PartitionedCall/PartitionedCall/tf.strided_slice_9/ones_like", "op": "Const", "attr": {"dtype": {"type": "DT_INT64"}, "value": {"tensor": {"dtype": "DT_INT64", "tensorShape": {"dim": [{"size": "4"}]}}}}}, {"name": "23014", "op": "Const", "attr": {"value": {"tensor": {"dtype": "DT_FLOAT", "tensorShape": {"dim": [{"size": "3"}, {"size": "3"}, {"size": "64"}, {"size": "64"}]}}}, "dtype": {"type": "DT_FLOAT"}}}, {"name": "23016", "op": "Const", "attr": {"dtype": {"type": "DT_FLOAT"}, "value": {"tensor": {"dtype": "DT_FLOAT", "tensorShape": {"dim": [{"size": "64"}]}}}}}, {"name": "23018", "op": "Const", "attr": {"dtype": {"type": "DT_FLOAT"}, "value": {"tensor": {"dtype": "DT_FLOAT", "tensorShape": {"dim": [{"size": "3"}, {"size": "3"}, {"size": "64"}, {"size": "64"}]}}}}}, {"name": "23020", "op": "Const", "attr": {"value": {"tensor": {"dtype": "DT_FLOAT", "tensorShape": {"dim": [{"size": "64"}]}}}, "dtype": {"type": "DT_FLOAT"}}}, {"name": "PartitionedCall/PartitionedCall/PartitionedCall/tf.concat_6/concat/axis", "op": "Const", "attr": {"dtype": {"type": "DT_INT32"}, "value": {"tensor": {"dtype": "DT_INT32", "tensorShape": {}}}}}, {"name": "23026", "op": "Const", "attr": {"dtype": {"type": "DT_FLOAT"}, "value": {"tensor": {"dtype": "DT_FLOAT", "tensorShape": {"dim": [{"size": "1"}, {"size": "1"}, {"size": "192"}, {"size": "128"}]}}}}}, {"name": "23028", "op": "Const", "attr": {"value": {"tensor": {"dtype": "DT_FLOAT", "tensorShape": {"dim": [{"size": "128"}]}}}, "dtype": {"type": "DT_FLOAT"}}}, {"name": "PartitionedCall/PartitionedCall/PartitionedCall/tf.concat_9/concat/axis", "op": "Const", "attr": {"dtype": {"type": "DT_INT32"}, "value": {"tensor": {"dtype": "DT_INT32", "tensorShape": {}}}}}, {"name": "23060", "op": "Const", "attr": {"value": {"tensor": {"dtype": "DT_FLOAT", "tensorShape": {"dim": [{"size": "1"}, {"size": "1"}, {"size": "192"}, {"size": "128"}]}}}, "dtype": {"type": "DT_FLOAT"}}}, {"name": "23062", "op": "Const", "attr": {"value": {"tensor": {"dtype": "DT_FLOAT", "tensorShape": {"dim": [{"size": "128"}]}}}, "dtype": {"type": "DT_FLOAT"}}}, {"name": "23064", "op": "Const", "attr": {"dtype": {"type": "DT_INT64"}, "value": {"tensor": {"dtype": "DT_INT64", "tensorShape": {"dim": [{"size": "4"}]}}}}}, {"name": "23066", "op": "Const", "attr": {"value": {"tensor": {"dtype": "DT_INT64", "tensorShape": {"dim": [{"size": "4"}]}}}, "dtype": {"type": "DT_INT64"}}}, {"name": "PartitionedCall/PartitionedCall/PartitionedCall/tf.strided_slice_13/ones_like", "op": "Const", "attr": {"dtype": {"type": "DT_INT64"}, "value": {"tensor": {"dtype": "DT_INT64", "tensorShape": {"dim": [{"size": "4"}]}}}}}, {"name": "23068", "op": "Const", "attr": {"dtype": {"type": "DT_FLOAT"}, "value": {"tensor": {"dtype": "DT_FLOAT", "tensorShape": {"dim": [{"size": "3"}, {"size": "3"}, {"size": "64"}, {"size": "64"}]}}}}}, {"name": "23070", "op": "Const", "attr": {"value": {"tensor": {"dtype": "DT_FLOAT", "tensorShape": {"dim": [{"size": "64"}]}}}, "dtype": {"type": "DT_FLOAT"}}}, {"name": "23072", "op": "Const", "attr": {"value": {"tensor": {"dtype": "DT_FLOAT", "tensorShape": {"dim": [{"size": "3"}, {"size": "3"}, {"size": "64"}, {"size": "64"}]}}}, "dtype": {"type": "DT_FLOAT"}}}, {"name": "23074", "op": "Const", "attr": {"value": {"tensor": {"dtype": "DT_FLOAT", "tensorShape": {"dim": [{"size": "64"}]}}}, "dtype": {"type": "DT_FLOAT"}}}, {"name": "PartitionedCall/PartitionedCall/PartitionedCall/tf.concat_11/concat/axis", "op": "Const", "attr": {"value": {"tensor": {"dtype": "DT_INT32", "tensorShape": {}}}, "dtype": {"type": "DT_INT32"}}}, {"name": "23080", "op": "Const", "attr": {"dtype": {"type": "DT_FLOAT"}, "value": {"tensor": {"dtype": "DT_FLOAT", "tensorShape": {"dim": [{"size": "1"}, {"size": "1"}, {"size": "192"}, {"size": "128"}]}}}}}, {"name": "23082", "op": "Const", "attr": {"dtype": {"type": "DT_FLOAT"}, "value": {"tensor": {"dtype": "DT_FLOAT", "tensorShape": {"dim": [{"size": "128"}]}}}}}, {"name": "23084", "op": "Const", "attr": {"dtype": {"type": "DT_INT32"}, "value": {"tensor": {"dtype": "DT_INT32", "tensorShape": {"dim": [{"size": "4"}, {"size": "2"}]}}}}}, {"name": "23086", "op": "Const", "attr": {"dtype": {"type": "DT_FLOAT"}, "value": {"tensor": {"dtype": "DT_FLOAT", "tensorShape": {"dim": [{"size": "3"}, {"size": "3"}, {"size": "128"}, {"size": "128"}]}}}}}, {"name": "23088", "op": "Const", "attr": {"dtype": {"type": "DT_FLOAT"}, "value": {"tensor": {"dtype": "DT_FLOAT", "tensorShape": {"dim": [{"size": "128"}]}}}}}, {"name": "22990", "op": "Const", "attr": {"value": {"tensor": {"dtype": "DT_INT64", "tensorShape": {"dim": [{"size": "4"}]}}}, "dtype": {"type": "DT_INT64"}}}, {"name": "22992", "op": "Const", "attr": {"value": {"tensor": {"dtype": "DT_INT64", "tensorShape": {"dim": [{"size": "4"}]}}}, "dtype": {"type": "DT_INT64"}}}, {"name": "PartitionedCall/PartitionedCall/PartitionedCall/tf.strided_slice_6/ones_like", "op": "Const", "attr": {"dtype": {"type": "DT_INT64"}, "value": {"tensor": {"dtype": "DT_INT64", "tensorShape": {"dim": [{"size": "4"}]}}}}}, {"name": "22960", "op": "Const", "attr": {"value": {"tensor": {"dtype": "DT_INT64", "tensorShape": {"dim": [{"size": "4"}]}}}, "dtype": {"type": "DT_INT64"}}}, {"name": "22962", "op": "Const", "attr": {"dtype": {"type": "DT_INT64"}, "value": {"tensor": {"dtype": "DT_INT64", "tensorShape": {"dim": [{"size": "4"}]}}}}}, {"name": "PartitionedCall/PartitionedCall/PartitionedCall/tf.strided_slice_4/ones_like", "op": "Const", "attr": {"dtype": {"type": "DT_INT64"}, "value": {"tensor": {"dtype": "DT_INT64", "tensorShape": {"dim": [{"size": "4"}]}}}}}, {"name": "22922", "op": "Const", "attr": {"value": {"tensor": {"dtype": "DT_INT64", "tensorShape": {"dim": [{"size": "4"}]}}}, "dtype": {"type": "DT_INT64"}}}, {"name": "22924", "op": "Const", "attr": {"value": {"tensor": {"dtype": "DT_INT64", "tensorShape": {"dim": [{"size": "4"}]}}}, "dtype": {"type": "DT_INT64"}}}, {"name": "PartitionedCall/PartitionedCall/PartitionedCall/tf.strided_slice_2/ones_like", "op": "Const", "attr": {"dtype": {"type": "DT_INT64"}, "value": {"tensor": {"dtype": "DT_INT64", "tensorShape": {"dim": [{"size": "4"}]}}}}}, {"name": "22884", "op": "Const", "attr": {"dtype": {"type": "DT_INT64"}, "value": {"tensor": {"dtype": "DT_INT64", "tensorShape": {"dim": [{"size": "4"}]}}}}}, {"name": "22886", "op": "Const", "attr": {"dtype": {"type": "DT_INT64"}, "value": {"tensor": {"dtype": "DT_INT64", "tensorShape": {"dim": [{"size": "4"}]}}}}}, {"name": "PartitionedCall/PartitionedCall/PartitionedCall/tf.strided_slice/ones_like", "op": "Const", "attr": {"dtype": {"type": "DT_INT64"}, "value": {"tensor": {"dtype": "DT_INT64", "tensorShape": {"dim": [{"size": "4"}]}}}}}, {"name": "22856", "op": "Const", "attr": {"value": {"tensor": {"dtype": "DT_INT32", "tensorShape": {"dim": [{"size": "4"}, {"size": "2"}]}}}, "dtype": {"type": "DT_INT32"}}}, {"name": "22858", "op": "Const", "attr": {"dtype": {"type": "DT_FLOAT"}, "value": {"tensor": {"dtype": "DT_FLOAT", "tensorShape": {"dim": [{"size": "3"}, {"size": "3"}, {"size": "3"}, {"size": "16"}]}}}}}, {"name": "22860", "op": "Const", "attr": {"value": {"tensor": {"dtype": "DT_FLOAT", "tensorShape": {"dim": [{"size": "16"}]}}}, "dtype": {"type": "DT_FLOAT"}}}, {"name": "22862", "op": "Const", "attr": {"value": {"tensor": {"dtype": "DT_INT32", "tensorShape": {"dim": [{"size": "4"}, {"size": "2"}]}}}, "dtype": {"type": "DT_INT32"}}}, {"name": "22864", "op": "Const", "attr": {"dtype": {"type": "DT_FLOAT"}, "value": {"tensor": {"dtype": "DT_FLOAT", "tensorShape": {"dim": [{"size": "3"}, {"size": "3"}, {"size": "16"}, {"size": "32"}]}}}}}, {"name": "22866", "op": "Const", "attr": {"dtype": {"type": "DT_FLOAT"}, "value": {"tensor": {"dtype": "DT_FLOAT", "tensorShape": {"dim": [{"size": "32"}]}}}}}, {"name": "22868", "op": "Const", "attr": {"dtype": {"type": "DT_FLOAT"}, "value": {"tensor": {"dtype": "DT_FLOAT", "tensorShape": {"dim": [{"size": "1"}, {"size": "1"}, {"size": "32"}, {"size": "32"}]}}}}}, {"name": "22870", "op": "Const", "attr": {"value": {"tensor": {"dtype": "DT_FLOAT", "tensorShape": {"dim": [{"size": "32"}]}}}, "dtype": {"type": "DT_FLOAT"}}}, {"name": "22872", "op": "Const", "attr": {"dtype": {"type": "DT_INT64"}, "value": {"tensor": {"dtype": "DT_INT64", "tensorShape": {"dim": [{"size": "4"}]}}}}}, {"name": "22874", "op": "Const", "attr": {"dtype": {"type": "DT_INT64"}, "value": {"tensor": {"dtype": "DT_INT64", "tensorShape": {"dim": [{"size": "4"}]}}}}}, {"name": "PartitionedCall/PartitionedCall/PartitionedCall/tf.strided_slice_1/ones_like", "op": "Const", "attr": {"dtype": {"type": "DT_INT64"}, "value": {"tensor": {"dtype": "DT_INT64", "tensorShape": {"dim": [{"size": "4"}]}}}}}, {"name": "22876", "op": "Const", "attr": {"dtype": {"type": "DT_FLOAT"}, "value": {"tensor": {"dtype": "DT_FLOAT", "tensorShape": {"dim": [{"size": "3"}, {"size": "3"}, {"size": "16"}, {"size": "16"}]}}}}}, {"name": "22878", "op": "Const", "attr": {"value": {"tensor": {"dtype": "DT_FLOAT", "tensorShape": {"dim": [{"size": "16"}]}}}, "dtype": {"type": "DT_FLOAT"}}}, {"name": "22880", "op": "Const", "attr": {"value": {"tensor": {"dtype": "DT_FLOAT", "tensorShape": {"dim": [{"size": "3"}, {"size": "3"}, {"size": "16"}, {"size": "16"}]}}}, "dtype": {"type": "DT_FLOAT"}}}, {"name": "22882", "op": "Const", "attr": {"dtype": {"type": "DT_FLOAT"}, "value": {"tensor": {"dtype": "DT_FLOAT", "tensorShape": {"dim": [{"size": "16"}]}}}}}, {"name": "PartitionedCall/PartitionedCall/PartitionedCall/tf.concat/concat/axis", "op": "Const", "attr": {"value": {"tensor": {"dtype": "DT_INT32", "tensorShape": {}}}, "dtype": {"type": "DT_INT32"}}}, {"name": "22888", "op": "Const", "attr": {"dtype": {"type": "DT_FLOAT"}, "value": {"tensor": {"dtype": "DT_FLOAT", "tensorShape": {"dim": [{"size": "1"}, {"size": "1"}, {"size": "48"}, {"size": "32"}]}}}}}, {"name": "22890", "op": "Const", "attr": {"value": {"tensor": {"dtype": "DT_FLOAT", "tensorShape": {"dim": [{"size": "32"}]}}}, "dtype": {"type": "DT_FLOAT"}}}, {"name": "22892", "op": "Const", "attr": {"dtype": {"type": "DT_INT32"}, "value": {"tensor": {"dtype": "DT_INT32", "tensorShape": {"dim": [{"size": "4"}, {"size": "2"}]}}}}}, {"name": "22894", "op": "Const", "attr": {"dtype": {"type": "DT_FLOAT"}, "value": {"tensor": {"dtype": "DT_FLOAT", "tensorShape": {"dim": [{"size": "3"}, {"size": "3"}, {"size": "32"}, {"size": "64"}]}}}}}, {"name": "22896", "op": "Const", "attr": {"dtype": {"type": "DT_FLOAT"}, "value": {"tensor": {"dtype": "DT_FLOAT", "tensorShape": {"dim": [{"size": "64"}]}}}}}, {"name": "22898", "op": "Const", "attr": {"dtype": {"type": "DT_FLOAT"}, "value": {"tensor": {"dtype": "DT_FLOAT", "tensorShape": {"dim": [{"size": "1"}, {"size": "1"}, {"size": "64"}, {"size": "64"}]}}}}}, {"name": "22900", "op": "Const", "attr": {"dtype": {"type": "DT_FLOAT"}, "value": {"tensor": {"dtype": "DT_FLOAT", "tensorShape": {"dim": [{"size": "64"}]}}}}}, {"name": "22902", "op": "Const", "attr": {"value": {"tensor": {"dtype": "DT_INT64", "tensorShape": {"dim": [{"size": "4"}]}}}, "dtype": {"type": "DT_INT64"}}}, {"name": "22904", "op": "Const", "attr": {"dtype": {"type": "DT_INT64"}, "value": {"tensor": {"dtype": "DT_INT64", "tensorShape": {"dim": [{"size": "4"}]}}}}}, {"name": "PartitionedCall/PartitionedCall/PartitionedCall/tf.strided_slice_3/ones_like", "op": "Const", "attr": {"value": {"tensor": {"dtype": "DT_INT64", "tensorShape": {"dim": [{"size": "4"}]}}}, "dtype": {"type": "DT_INT64"}}}, {"name": "22906", "op": "Const", "attr": {"dtype": {"type": "DT_FLOAT"}, "value": {"tensor": {"dtype": "DT_FLOAT", "tensorShape": {"dim": [{"size": "3"}, {"size": "3"}, {"size": "32"}, {"size": "32"}]}}}}}, {"name": "22908", "op": "Const", "attr": {"value": {"tensor": {"dtype": "DT_FLOAT", "tensorShape": {"dim": [{"size": "32"}]}}}, "dtype": {"type": "DT_FLOAT"}}}, {"name": "22910", "op": "Const", "attr": {"dtype": {"type": "DT_FLOAT"}, "value": {"tensor": {"dtype": "DT_FLOAT", "tensorShape": {"dim": [{"size": "3"}, {"size": "3"}, {"size": "32"}, {"size": "32"}]}}}}}, {"name": "22912", "op": "Const", "attr": {"dtype": {"type": "DT_FLOAT"}, "value": {"tensor": {"dtype": "DT_FLOAT", "tensorShape": {"dim": [{"size": "32"}]}}}}}, {"name": "22914", "op": "Const", "attr": {"dtype": {"type": "DT_FLOAT"}, "value": {"tensor": {"dtype": "DT_FLOAT", "tensorShape": {"dim": [{"size": "3"}, {"size": "3"}, {"size": "32"}, {"size": "32"}]}}}}}, {"name": "22916", "op": "Const", "attr": {"dtype": {"type": "DT_FLOAT"}, "value": {"tensor": {"dtype": "DT_FLOAT", "tensorShape": {"dim": [{"size": "32"}]}}}}}, {"name": "22918", "op": "Const", "attr": {"dtype": {"type": "DT_FLOAT"}, "value": {"tensor": {"dtype": "DT_FLOAT", "tensorShape": {"dim": [{"size": "3"}, {"size": "3"}, {"size": "32"}, {"size": "32"}]}}}}}, {"name": "22920", "op": "Const", "attr": {"dtype": {"type": "DT_FLOAT"}, "value": {"tensor": {"dtype": "DT_FLOAT", "tensorShape": {"dim": [{"size": "32"}]}}}}}, {"name": "PartitionedCall/PartitionedCall/PartitionedCall/tf.concat_1/concat/axis", "op": "Const", "attr": {"dtype": {"type": "DT_INT32"}, "value": {"tensor": {"dtype": "DT_INT32", "tensorShape": {}}}}}, {"name": "22926", "op": "Const", "attr": {"dtype": {"type": "DT_FLOAT"}, "value": {"tensor": {"dtype": "DT_FLOAT", "tensorShape": {"dim": [{"size": "1"}, {"size": "1"}, {"size": "128"}, {"size": "64"}]}}}}}, {"name": "22928", "op": "Const", "attr": {"dtype": {"type": "DT_FLOAT"}, "value": {"tensor": {"dtype": "DT_FLOAT", "tensorShape": {"dim": [{"size": "64"}]}}}}}, {"name": "22930", "op": "Const", "attr": {"dtype": {"type": "DT_INT32"}, "value": {"tensor": {"dtype": "DT_INT32", "tensorShape": {"dim": [{"size": "4"}, {"size": "2"}]}}}}}, {"name": "22932", "op": "Const", "attr": {"dtype": {"type": "DT_FLOAT"}, "value": {"tensor": {"dtype": "DT_FLOAT", "tensorShape": {"dim": [{"size": "3"}, {"size": "3"}, {"size": "64"}, {"size": "128"}]}}}}}, {"name": "22934", "op": "Const", "attr": {"value": {"tensor": {"dtype": "DT_FLOAT", "tensorShape": {"dim": [{"size": "128"}]}}}, "dtype": {"type": "DT_FLOAT"}}}, {"name": "22936", "op": "Const", "attr": {"dtype": {"type": "DT_FLOAT"}, "value": {"tensor": {"dtype": "DT_FLOAT", "tensorShape": {"dim": [{"size": "1"}, {"size": "1"}, {"size": "128"}, {"size": "128"}]}}}}}, {"name": "22938", "op": "Const", "attr": {"dtype": {"type": "DT_FLOAT"}, "value": {"tensor": {"dtype": "DT_FLOAT", "tensorShape": {"dim": [{"size": "128"}]}}}}}, {"name": "22940", "op": "Const", "attr": {"value": {"tensor": {"dtype": "DT_INT64", "tensorShape": {"dim": [{"size": "4"}]}}}, "dtype": {"type": "DT_INT64"}}}, {"name": "22942", "op": "Const", "attr": {"dtype": {"type": "DT_INT64"}, "value": {"tensor": {"dtype": "DT_INT64", "tensorShape": {"dim": [{"size": "4"}]}}}}}, {"name": "PartitionedCall/PartitionedCall/PartitionedCall/tf.strided_slice_5/ones_like", "op": "Const", "attr": {"value": {"tensor": {"dtype": "DT_INT64", "tensorShape": {"dim": [{"size": "4"}]}}}, "dtype": {"type": "DT_INT64"}}}, {"name": "22944", "op": "Const", "attr": {"value": {"tensor": {"dtype": "DT_FLOAT", "tensorShape": {"dim": [{"size": "3"}, {"size": "3"}, {"size": "64"}, {"size": "64"}]}}}, "dtype": {"type": "DT_FLOAT"}}}, {"name": "22946", "op": "Const", "attr": {"dtype": {"type": "DT_FLOAT"}, "value": {"tensor": {"dtype": "DT_FLOAT", "tensorShape": {"dim": [{"size": "64"}]}}}}}, {"name": "22948", "op": "Const", "attr": {"value": {"tensor": {"dtype": "DT_FLOAT", "tensorShape": {"dim": [{"size": "3"}, {"size": "3"}, {"size": "64"}, {"size": "64"}]}}}, "dtype": {"type": "DT_FLOAT"}}}, {"name": "22950", "op": "Const", "attr": {"dtype": {"type": "DT_FLOAT"}, "value": {"tensor": {"dtype": "DT_FLOAT", "tensorShape": {"dim": [{"size": "64"}]}}}}}, {"name": "22952", "op": "Const", "attr": {"dtype": {"type": "DT_FLOAT"}, "value": {"tensor": {"dtype": "DT_FLOAT", "tensorShape": {"dim": [{"size": "3"}, {"size": "3"}, {"size": "64"}, {"size": "64"}]}}}}}, {"name": "22954", "op": "Const", "attr": {"value": {"tensor": {"dtype": "DT_FLOAT", "tensorShape": {"dim": [{"size": "64"}]}}}, "dtype": {"type": "DT_FLOAT"}}}, {"name": "22956", "op": "Const", "attr": {"value": {"tensor": {"dtype": "DT_FLOAT", "tensorShape": {"dim": [{"size": "3"}, {"size": "3"}, {"size": "64"}, {"size": "64"}]}}}, "dtype": {"type": "DT_FLOAT"}}}, {"name": "22958", "op": "Const", "attr": {"value": {"tensor": {"dtype": "DT_FLOAT", "tensorShape": {"dim": [{"size": "64"}]}}}, "dtype": {"type": "DT_FLOAT"}}}, {"name": "PartitionedCall/PartitionedCall/PartitionedCall/tf.concat_2/concat/axis", "op": "Const", "attr": {"value": {"tensor": {"dtype": "DT_INT32", "tensorShape": {}}}, "dtype": {"type": "DT_INT32"}}}, {"name": "22964", "op": "Const", "attr": {"dtype": {"type": "DT_FLOAT"}, "value": {"tensor": {"dtype": "DT_FLOAT", "tensorShape": {"dim": [{"size": "1"}, {"size": "1"}, {"size": "256"}, {"size": "128"}]}}}}}, {"name": "22966", "op": "Const", "attr": {"dtype": {"type": "DT_FLOAT"}, "value": {"tensor": {"dtype": "DT_FLOAT", "tensorShape": {"dim": [{"size": "128"}]}}}}}, {"name": "22968", "op": "Const", "attr": {"dtype": {"type": "DT_INT32"}, "value": {"tensor": {"dtype": "DT_INT32", "tensorShape": {"dim": [{"size": "4"}, {"size": "2"}]}}}}}, {"name": "22970", "op": "Const", "attr": {"dtype": {"type": "DT_FLOAT"}, "value": {"tensor": {"dtype": "DT_FLOAT", "tensorShape": {"dim": [{"size": "3"}, {"size": "3"}, {"size": "128"}, {"size": "256"}]}}}}}, {"name": "22972", "op": "Const", "attr": {"dtype": {"type": "DT_FLOAT"}, "value": {"tensor": {"dtype": "DT_FLOAT", "tensorShape": {"dim": [{"size": "256"}]}}}}}, {"name": "22974", "op": "Const", "attr": {"dtype": {"type": "DT_FLOAT"}, "value": {"tensor": {"dtype": "DT_FLOAT", "tensorShape": {"dim": [{"size": "1"}, {"size": "1"}, {"size": "256"}, {"size": "256"}]}}}}}, {"name": "22976", "op": "Const", "attr": {"dtype": {"type": "DT_FLOAT"}, "value": {"tensor": {"dtype": "DT_FLOAT", "tensorShape": {"dim": [{"size": "256"}]}}}}}, {"name": "22978", "op": "Const", "attr": {"dtype": {"type": "DT_INT64"}, "value": {"tensor": {"dtype": "DT_INT64", "tensorShape": {"dim": [{"size": "4"}]}}}}}, {"name": "22980", "op": "Const", "attr": {"value": {"tensor": {"dtype": "DT_INT64", "tensorShape": {"dim": [{"size": "4"}]}}}, "dtype": {"type": "DT_INT64"}}}, {"name": "PartitionedCall/PartitionedCall/PartitionedCall/tf.strided_slice_7/ones_like", "op": "Const", "attr": {"value": {"tensor": {"dtype": "DT_INT64", "tensorShape": {"dim": [{"size": "4"}]}}}, "dtype": {"type": "DT_INT64"}}}, {"name": "22982", "op": "Const", "attr": {"dtype": {"type": "DT_FLOAT"}, "value": {"tensor": {"dtype": "DT_FLOAT", "tensorShape": {"dim": [{"size": "3"}, {"size": "3"}, {"size": "128"}, {"size": "128"}]}}}}}, {"name": "22984", "op": "Const", "attr": {"dtype": {"type": "DT_FLOAT"}, "value": {"tensor": {"dtype": "DT_FLOAT", "tensorShape": {"dim": [{"size": "128"}]}}}}}, {"name": "22986", "op": "Const", "attr": {"dtype": {"type": "DT_FLOAT"}, "value": {"tensor": {"dtype": "DT_FLOAT", "tensorShape": {"dim": [{"size": "3"}, {"size": "3"}, {"size": "128"}, {"size": "128"}]}}}}}, {"name": "22988", "op": "Const", "attr": {"dtype": {"type": "DT_FLOAT"}, "value": {"tensor": {"dtype": "DT_FLOAT", "tensorShape": {"dim": [{"size": "128"}]}}}}}, {"name": "PartitionedCall/PartitionedCall/PartitionedCall/tf.concat_3/concat/axis", "op": "Const", "attr": {"dtype": {"type": "DT_INT32"}, "value": {"tensor": {"dtype": "DT_INT32", "tensorShape": {}}}}}, {"name": "22994", "op": "Const", "attr": {"value": {"tensor": {"dtype": "DT_FLOAT", "tensorShape": {"dim": [{"size": "1"}, {"size": "1"}, {"size": "384"}, {"size": "256"}]}}}, "dtype": {"type": "DT_FLOAT"}}}, {"name": "22996", "op": "Const", "attr": {"dtype": {"type": "DT_FLOAT"}, "value": {"tensor": {"dtype": "DT_FLOAT", "tensorShape": {"dim": [{"size": "256"}]}}}}}, {"name": "22998", "op": "Const", "attr": {"value": {"tensor": {"dtype": "DT_FLOAT", "tensorShape": {"dim": [{"size": "1"}, {"size": "1"}, {"size": "256"}, {"size": "128"}]}}}, "dtype": {"type": "DT_FLOAT"}}}, {"name": "23000", "op": "Const", "attr": {"dtype": {"type": "DT_FLOAT"}, "value": {"tensor": {"dtype": "DT_FLOAT", "tensorShape": {"dim": [{"size": "128"}]}}}}}, {"name": "PartitionedCall/PartitionedCall/PartitionedCall/tf.concat_4/concat/axis", "op": "Const", "attr": {"value": {"tensor": {"dtype": "DT_INT32", "tensorShape": {}}}, "dtype": {"type": "DT_INT32"}}}, {"name": "23002", "op": "Const", "attr": {"dtype": {"type": "DT_FLOAT"}, "value": {"tensor": {"dtype": "DT_FLOAT", "tensorShape": {"dim": [{"size": "1"}, {"size": "1"}, {"size": "512"}, {"size": "256"}]}}}}}, {"name": "23004", "op": "Const", "attr": {"dtype": {"type": "DT_FLOAT"}, "value": {"tensor": {"dtype": "DT_FLOAT", "tensorShape": {"dim": [{"size": "256"}]}}}}}, {"name": "PartitionedCall/PartitionedCall/PartitionedCall/tf.concat_12/concat/axis", "op": "Const", "attr": {"value": {"tensor": {"dtype": "DT_INT32", "tensorShape": {}}}, "dtype": {"type": "DT_INT32"}}}, {"name": "23090", "op": "Const", "attr": {"dtype": {"type": "DT_FLOAT"}, "value": {"tensor": {"dtype": "DT_FLOAT", "tensorShape": {"dim": [{"size": "1"}, {"size": "1"}, {"size": "384"}, {"size": "256"}]}}}}}, {"name": "23092", "op": "Const", "attr": {"dtype": {"type": "DT_FLOAT"}, "value": {"tensor": {"dtype": "DT_FLOAT", "tensorShape": {"dim": [{"size": "256"}]}}}}}, {"name": "23094", "op": "Const", "attr": {"dtype": {"type": "DT_INT64"}, "value": {"tensor": {"dtype": "DT_INT64", "tensorShape": {"dim": [{"size": "4"}]}}}}}, {"name": "23096", "op": "Const", "attr": {"dtype": {"type": "DT_INT64"}, "value": {"tensor": {"dtype": "DT_INT64", "tensorShape": {"dim": [{"size": "4"}]}}}}}, {"name": "PartitionedCall/PartitionedCall/PartitionedCall/tf.strided_slice_15/ones_like", "op": "Const", "attr": {"value": {"tensor": {"dtype": "DT_INT64", "tensorShape": {"dim": [{"size": "4"}]}}}, "dtype": {"type": "DT_INT64"}}}, {"name": "23098", "op": "Const", "attr": {"dtype": {"type": "DT_FLOAT"}, "value": {"tensor": {"dtype": "DT_FLOAT", "tensorShape": {"dim": [{"size": "3"}, {"size": "3"}, {"size": "128"}, {"size": "128"}]}}}}}, {"name": "23100", "op": "Const", "attr": {"value": {"tensor": {"dtype": "DT_FLOAT", "tensorShape": {"dim": [{"size": "128"}]}}}, "dtype": {"type": "DT_FLOAT"}}}, {"name": "23102", "op": "Const", "attr": {"dtype": {"type": "DT_FLOAT"}, "value": {"tensor": {"dtype": "DT_FLOAT", "tensorShape": {"dim": [{"size": "3"}, {"size": "3"}, {"size": "128"}, {"size": "128"}]}}}}}, {"name": "23104", "op": "Const", "attr": {"dtype": {"type": "DT_FLOAT"}, "value": {"tensor": {"dtype": "DT_FLOAT", "tensorShape": {"dim": [{"size": "128"}]}}}}}, {"name": "PartitionedCall/PartitionedCall/PartitionedCall/tf.concat_14/concat/axis", "op": "Const", "attr": {"value": {"tensor": {"dtype": "DT_INT32", "tensorShape": {}}}, "dtype": {"type": "DT_INT32"}}}, {"name": "23110", "op": "Const", "attr": {"value": {"tensor": {"dtype": "DT_FLOAT", "tensorShape": {"dim": [{"size": "1"}, {"size": "1"}, {"size": "384"}, {"size": "256"}]}}}, "dtype": {"type": "DT_FLOAT"}}}, {"name": "23112", "op": "Const", "attr": {"dtype": {"type": "DT_FLOAT"}, "value": {"tensor": {"dtype": "DT_FLOAT", "tensorShape": {"dim": [{"size": "256"}]}}}}}, {"name": "23114", "op": "Const", "attr": {"value": {"tensor": {"dtype": "DT_FLOAT", "tensorShape": {"dim": [{"size": "3"}, {"size": "3"}, {"size": "256"}, {"size": "64"}]}}}, "dtype": {"type": "DT_FLOAT"}}}, {"name": "23126", "op": "Const", "attr": {"dtype": {"type": "DT_FLOAT"}, "value": {"tensor": {"dtype": "DT_FLOAT", "tensorShape": {"dim": [{"size": "64"}]}}}}}, {"name": "23138", "op": "Const", "attr": {"value": {"tensor": {"dtype": "DT_FLOAT", "tensorShape": {"dim": [{"size": "3"}, {"size": "3"}, {"size": "64"}, {"size": "64"}]}}}, "dtype": {"type": "DT_FLOAT"}}}, {"name": "23150", "op": "Const", "attr": {"dtype": {"type": "DT_FLOAT"}, "value": {"tensor": {"dtype": "DT_FLOAT", "tensorShape": {"dim": [{"size": "64"}]}}}}}, {"name": "23162", "op": "Const", "attr": {"value": {"tensor": {"dtype": "DT_FLOAT", "tensorShape": {"dim": [{"size": "1"}, {"size": "1"}, {"size": "64"}, {"size": "5"}]}}}, "dtype": {"type": "DT_FLOAT"}}}, {"name": "23176", "op": "Const", "attr": {"dtype": {"type": "DT_FLOAT"}, "value": {"tensor": {"dtype": "DT_FLOAT", "tensorShape": {"dim": [{"size": "5"}]}}}}}, {"name": "PartitionedCall/PartitionedCall/PartitionedCall/tf.concat_15/concat/axis", "op": "Const", "attr": {"value": {"tensor": {"dtype": "DT_INT32", "tensorShape": {}}}, "dtype": {"type": "DT_INT32"}}}, {"name": "PartitionedCall/PartitionedCall/PartitionedCall/tf.compat.v1.transpose_2/transpose/perm", "op": "Const", "attr": {"value": {"tensor": {"dtype": "DT_INT32", "tensorShape": {"dim": [{"size": "4"}]}}}, "dtype": {"type": "DT_INT32"}}}, {"name": "PartitionedCall/PartitionedCall/PartitionedCall/tf.reshape_2/Reshape/shape", "op": "Const", "attr": {"dtype": {"type": "DT_INT32"}, "value": {"tensor": {"dtype": "DT_INT32", "tensorShape": {"dim": [{"size": "3"}]}}}}}, {"name": "PartitionedCall/PartitionedCall/PartitionedCall/tf.concat_16/concat/axis", "op": "Const", "attr": {"value": {"tensor": {"dtype": "DT_INT32", "tensorShape": {}}}, "dtype": {"type": "DT_INT32"}}}, {"name": "23206", "op": "Const", "attr": {"value": {"tensor": {"dtype": "DT_INT64", "tensorShape": {"dim": [{"size": "3"}]}}}, "dtype": {"type": "DT_INT64"}}}, {"name": "23208", "op": "Const", "attr": {"value": {"tensor": {"dtype": "DT_INT64", "tensorShape": {"dim": [{"size": "3"}]}}}, "dtype": {"type": "DT_INT64"}}}, {"name": "PartitionedCall/PartitionedCall/PartitionedCall/tf.strided_slice_17/StridedSlice/strides", "op": "Const", "attr": {"dtype": {"type": "DT_INT64"}, "value": {"tensor": {"dtype": "DT_INT64", "tensorShape": {"dim": [{"size": "3"}]}}}}}, {"name": "PartitionedCall/PartitionedCall/PartitionedCall/output0/concat/axis", "op": "Const", "attr": {"dtype": {"type": "DT_INT32"}, "value": {"tensor": {"dtype": "DT_INT32", "tensorShape": {}}}}}, {"name": "x", "op": "Placeholder", "attr": {"dtype": {"type": "DT_FLOAT"}, "shape": {"shape": {"dim": [{"size": "1"}, {"size": "640"}, {"size": "640"}, {"size": "3"}]}}}}, {"name": "PartitionedCall/PartitionedCall/PartitionedCall/tf.compat.v1.pad/Pad", "op": "Pad", "input": ["x", "22856"], "attr": {"Tpaddings": {"type": "DT_INT32"}, "T": {"type": "DT_FLOAT"}}}, {"name": "PartitionedCall/PartitionedCall/PartitionedCall/tf.nn.convolution/convolution", "op": "Conv2D", "input": ["PartitionedCall/PartitionedCall/PartitionedCall/tf.compat.v1.pad/Pad", "22858"], "device": "/device:CPU:0", "attr": {"T": {"type": "DT_FLOAT"}, "data_format": {"s": "TkhXQw=="}, "strides": {"list": {"i": ["1", "2", "2", "1"]}}, "use_cudnn_on_gpu": {"b": true}, "dilations": {"list": {"i": ["1", "1", "1", "1"]}}, "explicit_paddings": {"list": {}}, "padding": {"s": "VkFMSUQ="}}}, {"name": "PartitionedCall/PartitionedCall/PartitionedCall/tf.math.add/Add", "op": "AddV2", "input": ["PartitionedCall/PartitionedCall/PartitionedCall/tf.nn.convolution/convolution", "22860"], "attr": {"T": {"type": "DT_FLOAT"}}}, {"name": "PartitionedCall/PartitionedCall/PartitionedCall/tf.math.sigmoid/Sigmoid", "op": "Sigmoid", "input": ["PartitionedCall/PartitionedCall/PartitionedCall/tf.math.add/Add"], "attr": {"T": {"type": "DT_FLOAT"}}}, {"name": "PartitionedCall/PartitionedCall/PartitionedCall/tf.math.multiply_2/Mul", "op": "Mul", "input": ["PartitionedCall/PartitionedCall/PartitionedCall/tf.math.add/Add", "PartitionedCall/PartitionedCall/PartitionedCall/tf.math.sigmoid/Sigmoid"], "attr": {"T": {"type": "DT_FLOAT"}}}, {"name": "PartitionedCall/PartitionedCall/PartitionedCall/tf.compat.v1.pad_1/Pad", "op": "Pad", "input": ["PartitionedCall/PartitionedCall/PartitionedCall/tf.math.multiply_2/Mul", "22862"], "attr": {"T": {"type": "DT_FLOAT"}, "Tpaddings": {"type": "DT_INT32"}}}, {"name": "PartitionedCall/PartitionedCall/PartitionedCall/tf.nn.convolution_1/convolution", "op": "Conv2D", "input": ["PartitionedCall/PartitionedCall/PartitionedCall/tf.compat.v1.pad_1/Pad", "22864"], "device": "/device:CPU:0", "attr": {"use_cudnn_on_gpu": {"b": true}, "dilations": {"list": {"i": ["1", "1", "1", "1"]}}, "explicit_paddings": {"list": {}}, "T": {"type": "DT_FLOAT"}, "strides": {"list": {"i": ["1", "2", "2", "1"]}}, "padding": {"s": "VkFMSUQ="}, "data_format": {"s": "TkhXQw=="}}}, {"name": "PartitionedCall/PartitionedCall/PartitionedCall/tf.math.add_1/Add", "op": "AddV2", "input": ["PartitionedCall/PartitionedCall/PartitionedCall/tf.nn.convolution_1/convolution", "22866"], "attr": {"T": {"type": "DT_FLOAT"}}}, {"name": "PartitionedCall/PartitionedCall/PartitionedCall/tf.math.sigmoid_1/Sigmoid", "op": "Sigmoid", "input": ["PartitionedCall/PartitionedCall/PartitionedCall/tf.math.add_1/Add"], "attr": {"T": {"type": "DT_FLOAT"}}}, {"name": "PartitionedCall/PartitionedCall/PartitionedCall/tf.math.multiply_5/Mul", "op": "Mul", "input": ["PartitionedCall/PartitionedCall/PartitionedCall/tf.math.add_1/Add", "PartitionedCall/PartitionedCall/PartitionedCall/tf.math.sigmoid_1/Sigmoid"], "attr": {"T": {"type": "DT_FLOAT"}}}, {"name": "PartitionedCall/PartitionedCall/PartitionedCall/tf.nn.convolution_2/convolution", "op": "Conv2D", "input": ["PartitionedCall/PartitionedCall/PartitionedCall/tf.math.multiply_5/Mul", "22868"], "device": "/device:CPU:0", "attr": {"T": {"type": "DT_FLOAT"}, "explicit_paddings": {"list": {}}, "strides": {"list": {"i": ["1", "1", "1", "1"]}}, "dilations": {"list": {"i": ["1", "1", "1", "1"]}}, "data_format": {"s": "TkhXQw=="}, "padding": {"s": "U0FNRQ=="}, "use_cudnn_on_gpu": {"b": true}}}, {"name": "PartitionedCall/PartitionedCall/PartitionedCall/tf.math.add_2/Add", "op": "AddV2", "input": ["PartitionedCall/PartitionedCall/PartitionedCall/tf.nn.convolution_2/convolution", "22870"], "attr": {"T": {"type": "DT_FLOAT"}}}, {"name": "PartitionedCall/PartitionedCall/PartitionedCall/tf.math.sigmoid_2/Sigmoid", "op": "Sigmoid", "input": ["PartitionedCall/PartitionedCall/PartitionedCall/tf.math.add_2/Add"], "attr": {"T": {"type": "DT_FLOAT"}}}, {"name": "PartitionedCall/PartitionedCall/PartitionedCall/tf.math.multiply_8/Mul", "op": "Mul", "input": ["PartitionedCall/PartitionedCall/PartitionedCall/tf.math.add_2/Add", "PartitionedCall/PartitionedCall/PartitionedCall/tf.math.sigmoid_2/Sigmoid"], "attr": {"T": {"type": "DT_FLOAT"}}}, {"name": "PartitionedCall/PartitionedCall/PartitionedCall/tf.strided_slice/StridedSlice", "op": "StridedSlice", "input": ["PartitionedCall/PartitionedCall/PartitionedCall/tf.math.multiply_8/Mul", "22884", "22886", "PartitionedCall/PartitionedCall/PartitionedCall/tf.strided_slice/ones_like"], "attr": {"new_axis_mask": {"i": "0"}, "end_mask": {"i": "7"}, "ellipsis_mask": {"i": "0"}, "begin_mask": {"i": "15"}, "Index": {"type": "DT_INT64"}, "T": {"type": "DT_FLOAT"}, "shrink_axis_mask": {"i": "0"}}}, {"name": "PartitionedCall/PartitionedCall/PartitionedCall/tf.strided_slice_1/StridedSlice", "op": "StridedSlice", "input": ["PartitionedCall/PartitionedCall/PartitionedCall/tf.math.multiply_8/Mul", "22872", "22874", "PartitionedCall/PartitionedCall/PartitionedCall/tf.strided_slice_1/ones_like"], "attr": {"ellipsis_mask": {"i": "0"}, "begin_mask": {"i": "7"}, "Index": {"type": "DT_INT64"}, "new_axis_mask": {"i": "0"}, "T": {"type": "DT_FLOAT"}, "shrink_axis_mask": {"i": "0"}, "end_mask": {"i": "7"}}}, {"name": "PartitionedCall/PartitionedCall/PartitionedCall/tf.nn.convolution_3/convolution", "op": "Conv2D", "input": ["PartitionedCall/PartitionedCall/PartitionedCall/tf.strided_slice_1/StridedSlice", "22876"], "device": "/device:CPU:0", "attr": {"explicit_paddings": {"list": {}}, "dilations": {"list": {"i": ["1", "1", "1", "1"]}}, "T": {"type": "DT_FLOAT"}, "data_format": {"s": "TkhXQw=="}, "use_cudnn_on_gpu": {"b": true}, "padding": {"s": "U0FNRQ=="}, "strides": {"list": {"i": ["1", "1", "1", "1"]}}}}, {"name": "PartitionedCall/PartitionedCall/PartitionedCall/tf.math.add_3/Add", "op": "AddV2", "input": ["PartitionedCall/PartitionedCall/PartitionedCall/tf.nn.convolution_3/convolution", "22878"], "attr": {"T": {"type": "DT_FLOAT"}}}, {"name": "PartitionedCall/PartitionedCall/PartitionedCall/tf.math.sigmoid_3/Sigmoid", "op": "Sigmoid", "input": ["PartitionedCall/PartitionedCall/PartitionedCall/tf.math.add_3/Add"], "attr": {"T": {"type": "DT_FLOAT"}}}, {"name": "PartitionedCall/PartitionedCall/PartitionedCall/tf.math.multiply_11/Mul", "op": "Mul", "input": ["PartitionedCall/PartitionedCall/PartitionedCall/tf.math.add_3/Add", "PartitionedCall/PartitionedCall/PartitionedCall/tf.math.sigmoid_3/Sigmoid"], "attr": {"T": {"type": "DT_FLOAT"}}}, {"name": "PartitionedCall/PartitionedCall/PartitionedCall/tf.nn.convolution_4/convolution", "op": "Conv2D", "input": ["PartitionedCall/PartitionedCall/PartitionedCall/tf.math.multiply_11/Mul", "22880"], "device": "/device:CPU:0", "attr": {"explicit_paddings": {"list": {}}, "strides": {"list": {"i": ["1", "1", "1", "1"]}}, "dilations": {"list": {"i": ["1", "1", "1", "1"]}}, "T": {"type": "DT_FLOAT"}, "use_cudnn_on_gpu": {"b": true}, "padding": {"s": "U0FNRQ=="}, "data_format": {"s": "TkhXQw=="}}}, {"name": "PartitionedCall/PartitionedCall/PartitionedCall/tf.math.add_4/Add", "op": "AddV2", "input": ["PartitionedCall/PartitionedCall/PartitionedCall/tf.nn.convolution_4/convolution", "22882"], "attr": {"T": {"type": "DT_FLOAT"}}}, {"name": "PartitionedCall/PartitionedCall/PartitionedCall/tf.math.sigmoid_4/Sigmoid", "op": "Sigmoid", "input": ["PartitionedCall/PartitionedCall/PartitionedCall/tf.math.add_4/Add"], "attr": {"T": {"type": "DT_FLOAT"}}}, {"name": "PartitionedCall/PartitionedCall/PartitionedCall/tf.math.multiply_14/Mul", "op": "Mul", "input": ["PartitionedCall/PartitionedCall/PartitionedCall/tf.math.add_4/Add", "PartitionedCall/PartitionedCall/PartitionedCall/tf.math.sigmoid_4/Sigmoid"], "attr": {"T": {"type": "DT_FLOAT"}}}, {"name": "PartitionedCall/PartitionedCall/PartitionedCall/tf.math.add_5/Add", "op": "AddV2", "input": ["PartitionedCall/PartitionedCall/PartitionedCall/tf.strided_slice_1/StridedSlice", "PartitionedCall/PartitionedCall/PartitionedCall/tf.math.multiply_14/Mul"], "attr": {"T": {"type": "DT_FLOAT"}}}, {"name": "PartitionedCall/PartitionedCall/PartitionedCall/tf.concat/concat", "op": "ConcatV2", "input": ["PartitionedCall/PartitionedCall/PartitionedCall/tf.strided_slice/StridedSlice", "PartitionedCall/PartitionedCall/PartitionedCall/tf.strided_slice_1/StridedSlice", "PartitionedCall/PartitionedCall/PartitionedCall/tf.math.add_5/Add", "PartitionedCall/PartitionedCall/PartitionedCall/tf.concat/concat/axis"], "attr": {"N": {"i": "3"}, "T": {"type": "DT_FLOAT"}, "Tidx": {"type": "DT_INT32"}}}, {"name": "PartitionedCall/PartitionedCall/PartitionedCall/tf.nn.convolution_5/convolution", "op": "Conv2D", "input": ["PartitionedCall/PartitionedCall/PartitionedCall/tf.concat/concat", "22888"], "device": "/device:CPU:0", "attr": {"strides": {"list": {"i": ["1", "1", "1", "1"]}}, "dilations": {"list": {"i": ["1", "1", "1", "1"]}}, "explicit_paddings": {"list": {}}, "T": {"type": "DT_FLOAT"}, "data_format": {"s": "TkhXQw=="}, "use_cudnn_on_gpu": {"b": true}, "padding": {"s": "U0FNRQ=="}}}, {"name": "PartitionedCall/PartitionedCall/PartitionedCall/tf.math.add_6/Add", "op": "AddV2", "input": ["PartitionedCall/PartitionedCall/PartitionedCall/tf.nn.convolution_5/convolution", "22890"], "attr": {"T": {"type": "DT_FLOAT"}}}, {"name": "PartitionedCall/PartitionedCall/PartitionedCall/tf.math.sigmoid_5/Sigmoid", "op": "Sigmoid", "input": ["PartitionedCall/PartitionedCall/PartitionedCall/tf.math.add_6/Add"], "attr": {"T": {"type": "DT_FLOAT"}}}, {"name": "PartitionedCall/PartitionedCall/PartitionedCall/tf.math.multiply_19/Mul", "op": "Mul", "input": ["PartitionedCall/PartitionedCall/PartitionedCall/tf.math.add_6/Add", "PartitionedCall/PartitionedCall/PartitionedCall/tf.math.sigmoid_5/Sigmoid"], "attr": {"T": {"type": "DT_FLOAT"}}}, {"name": "PartitionedCall/PartitionedCall/PartitionedCall/tf.compat.v1.pad_2/Pad", "op": "Pad", "input": ["PartitionedCall/PartitionedCall/PartitionedCall/tf.math.multiply_19/Mul", "22892"], "attr": {"T": {"type": "DT_FLOAT"}, "Tpaddings": {"type": "DT_INT32"}}}, {"name": "PartitionedCall/PartitionedCall/PartitionedCall/tf.nn.convolution_6/convolution", "op": "Conv2D", "input": ["PartitionedCall/PartitionedCall/PartitionedCall/tf.compat.v1.pad_2/Pad", "22894"], "device": "/device:CPU:0", "attr": {"dilations": {"list": {"i": ["1", "1", "1", "1"]}}, "use_cudnn_on_gpu": {"b": true}, "explicit_paddings": {"list": {}}, "padding": {"s": "VkFMSUQ="}, "strides": {"list": {"i": ["1", "2", "2", "1"]}}, "T": {"type": "DT_FLOAT"}, "data_format": {"s": "TkhXQw=="}}}, {"name": "PartitionedCall/PartitionedCall/PartitionedCall/tf.math.add_7/Add", "op": "AddV2", "input": ["PartitionedCall/PartitionedCall/PartitionedCall/tf.nn.convolution_6/convolution", "22896"], "attr": {"T": {"type": "DT_FLOAT"}}}, {"name": "PartitionedCall/PartitionedCall/PartitionedCall/tf.math.sigmoid_6/Sigmoid", "op": "Sigmoid", "input": ["PartitionedCall/PartitionedCall/PartitionedCall/tf.math.add_7/Add"], "attr": {"T": {"type": "DT_FLOAT"}}}, {"name": "PartitionedCall/PartitionedCall/PartitionedCall/tf.math.multiply_22/Mul", "op": "Mul", "input": ["PartitionedCall/PartitionedCall/PartitionedCall/tf.math.add_7/Add", "PartitionedCall/PartitionedCall/PartitionedCall/tf.math.sigmoid_6/Sigmoid"], "attr": {"T": {"type": "DT_FLOAT"}}}, {"name": "PartitionedCall/PartitionedCall/PartitionedCall/tf.nn.convolution_7/convolution", "op": "Conv2D", "input": ["PartitionedCall/PartitionedCall/PartitionedCall/tf.math.multiply_22/Mul", "22898"], "device": "/device:CPU:0", "attr": {"data_format": {"s": "TkhXQw=="}, "T": {"type": "DT_FLOAT"}, "explicit_paddings": {"list": {}}, "dilations": {"list": {"i": ["1", "1", "1", "1"]}}, "strides": {"list": {"i": ["1", "1", "1", "1"]}}, "padding": {"s": "U0FNRQ=="}, "use_cudnn_on_gpu": {"b": true}}}, {"name": "PartitionedCall/PartitionedCall/PartitionedCall/tf.math.add_8/Add", "op": "AddV2", "input": ["PartitionedCall/PartitionedCall/PartitionedCall/tf.nn.convolution_7/convolution", "22900"], "attr": {"T": {"type": "DT_FLOAT"}}}, {"name": "PartitionedCall/PartitionedCall/PartitionedCall/tf.math.sigmoid_7/Sigmoid", "op": "Sigmoid", "input": ["PartitionedCall/PartitionedCall/PartitionedCall/tf.math.add_8/Add"], "attr": {"T": {"type": "DT_FLOAT"}}}, {"name": "PartitionedCall/PartitionedCall/PartitionedCall/tf.math.multiply_25/Mul", "op": "Mul", "input": ["PartitionedCall/PartitionedCall/PartitionedCall/tf.math.add_8/Add", "PartitionedCall/PartitionedCall/PartitionedCall/tf.math.sigmoid_7/Sigmoid"], "attr": {"T": {"type": "DT_FLOAT"}}}, {"name": "PartitionedCall/PartitionedCall/PartitionedCall/tf.strided_slice_2/StridedSlice", "op": "StridedSlice", "input": ["PartitionedCall/PartitionedCall/PartitionedCall/tf.math.multiply_25/Mul", "22922", "22924", "PartitionedCall/PartitionedCall/PartitionedCall/tf.strided_slice_2/ones_like"], "attr": {"end_mask": {"i": "7"}, "T": {"type": "DT_FLOAT"}, "begin_mask": {"i": "15"}, "new_axis_mask": {"i": "0"}, "shrink_axis_mask": {"i": "0"}, "ellipsis_mask": {"i": "0"}, "Index": {"type": "DT_INT64"}}}, {"name": "PartitionedCall/PartitionedCall/PartitionedCall/tf.strided_slice_3/StridedSlice", "op": "StridedSlice", "input": ["PartitionedCall/PartitionedCall/PartitionedCall/tf.math.multiply_25/Mul", "22902", "22904", "PartitionedCall/PartitionedCall/PartitionedCall/tf.strided_slice_3/ones_like"], "attr": {"T": {"type": "DT_FLOAT"}, "end_mask": {"i": "7"}, "new_axis_mask": {"i": "0"}, "ellipsis_mask": {"i": "0"}, "shrink_axis_mask": {"i": "0"}, "begin_mask": {"i": "7"}, "Index": {"type": "DT_INT64"}}}, {"name": "PartitionedCall/PartitionedCall/PartitionedCall/tf.nn.convolution_8/convolution", "op": "Conv2D", "input": ["PartitionedCall/PartitionedCall/PartitionedCall/tf.strided_slice_3/StridedSlice", "22906"], "device": "/device:CPU:0", "attr": {"padding": {"s": "U0FNRQ=="}, "strides": {"list": {"i": ["1", "1", "1", "1"]}}, "data_format": {"s": "TkhXQw=="}, "T": {"type": "DT_FLOAT"}, "explicit_paddings": {"list": {}}, "use_cudnn_on_gpu": {"b": true}, "dilations": {"list": {"i": ["1", "1", "1", "1"]}}}}, {"name": "PartitionedCall/PartitionedCall/PartitionedCall/tf.math.add_9/Add", "op": "AddV2", "input": ["PartitionedCall/PartitionedCall/PartitionedCall/tf.nn.convolution_8/convolution", "22908"], "attr": {"T": {"type": "DT_FLOAT"}}}, {"name": "PartitionedCall/PartitionedCall/PartitionedCall/tf.math.sigmoid_8/Sigmoid", "op": "Sigmoid", "input": ["PartitionedCall/PartitionedCall/PartitionedCall/tf.math.add_9/Add"], "attr": {"T": {"type": "DT_FLOAT"}}}, {"name": "PartitionedCall/PartitionedCall/PartitionedCall/tf.math.multiply_28/Mul", "op": "Mul", "input": ["PartitionedCall/PartitionedCall/PartitionedCall/tf.math.add_9/Add", "PartitionedCall/PartitionedCall/PartitionedCall/tf.math.sigmoid_8/Sigmoid"], "attr": {"T": {"type": "DT_FLOAT"}}}, {"name": "PartitionedCall/PartitionedCall/PartitionedCall/tf.nn.convolution_9/convolution", "op": "Conv2D", "input": ["PartitionedCall/PartitionedCall/PartitionedCall/tf.math.multiply_28/Mul", "22910"], "device": "/device:CPU:0", "attr": {"explicit_paddings": {"list": {}}, "data_format": {"s": "TkhXQw=="}, "padding": {"s": "U0FNRQ=="}, "T": {"type": "DT_FLOAT"}, "strides": {"list": {"i": ["1", "1", "1", "1"]}}, "dilations": {"list": {"i": ["1", "1", "1", "1"]}}, "use_cudnn_on_gpu": {"b": true}}}, {"name": "PartitionedCall/PartitionedCall/PartitionedCall/tf.math.add_10/Add", "op": "AddV2", "input": ["PartitionedCall/PartitionedCall/PartitionedCall/tf.nn.convolution_9/convolution", "22912"], "attr": {"T": {"type": "DT_FLOAT"}}}, {"name": "PartitionedCall/PartitionedCall/PartitionedCall/tf.math.sigmoid_9/Sigmoid", "op": "Sigmoid", "input": ["PartitionedCall/PartitionedCall/PartitionedCall/tf.math.add_10/Add"], "attr": {"T": {"type": "DT_FLOAT"}}}, {"name": "PartitionedCall/PartitionedCall/PartitionedCall/tf.math.multiply_31/Mul", "op": "Mul", "input": ["PartitionedCall/PartitionedCall/PartitionedCall/tf.math.add_10/Add", "PartitionedCall/PartitionedCall/PartitionedCall/tf.math.sigmoid_9/Sigmoid"], "attr": {"T": {"type": "DT_FLOAT"}}}, {"name": "PartitionedCall/PartitionedCall/PartitionedCall/tf.math.add_11/Add", "op": "AddV2", "input": ["PartitionedCall/PartitionedCall/PartitionedCall/tf.strided_slice_3/StridedSlice", "PartitionedCall/PartitionedCall/PartitionedCall/tf.math.multiply_31/Mul"], "attr": {"T": {"type": "DT_FLOAT"}}}, {"name": "PartitionedCall/PartitionedCall/PartitionedCall/tf.nn.convolution_10/convolution", "op": "Conv2D", "input": ["PartitionedCall/PartitionedCall/PartitionedCall/tf.math.add_11/Add", "22914"], "device": "/device:CPU:0", "attr": {"explicit_paddings": {"list": {}}, "use_cudnn_on_gpu": {"b": true}, "strides": {"list": {"i": ["1", "1", "1", "1"]}}, "dilations": {"list": {"i": ["1", "1", "1", "1"]}}, "data_format": {"s": "TkhXQw=="}, "padding": {"s": "U0FNRQ=="}, "T": {"type": "DT_FLOAT"}}}, {"name": "PartitionedCall/PartitionedCall/PartitionedCall/tf.math.add_12/Add", "op": "AddV2", "input": ["PartitionedCall/PartitionedCall/PartitionedCall/tf.nn.convolution_10/convolution", "22916"], "attr": {"T": {"type": "DT_FLOAT"}}}, {"name": "PartitionedCall/PartitionedCall/PartitionedCall/tf.math.sigmoid_10/Sigmoid", "op": "Sigmoid", "input": ["PartitionedCall/PartitionedCall/PartitionedCall/tf.math.add_12/Add"], "attr": {"T": {"type": "DT_FLOAT"}}}, {"name": "PartitionedCall/PartitionedCall/PartitionedCall/tf.math.multiply_36/Mul", "op": "Mul", "input": ["PartitionedCall/PartitionedCall/PartitionedCall/tf.math.add_12/Add", "PartitionedCall/PartitionedCall/PartitionedCall/tf.math.sigmoid_10/Sigmoid"], "attr": {"T": {"type": "DT_FLOAT"}}}, {"name": "PartitionedCall/PartitionedCall/PartitionedCall/tf.nn.convolution_11/convolution", "op": "Conv2D", "input": ["PartitionedCall/PartitionedCall/PartitionedCall/tf.math.multiply_36/Mul", "22918"], "device": "/device:CPU:0", "attr": {"padding": {"s": "U0FNRQ=="}, "use_cudnn_on_gpu": {"b": true}, "T": {"type": "DT_FLOAT"}, "data_format": {"s": "TkhXQw=="}, "strides": {"list": {"i": ["1", "1", "1", "1"]}}, "dilations": {"list": {"i": ["1", "1", "1", "1"]}}, "explicit_paddings": {"list": {}}}}, {"name": "PartitionedCall/PartitionedCall/PartitionedCall/tf.math.add_13/Add", "op": "AddV2", "input": ["PartitionedCall/PartitionedCall/PartitionedCall/tf.nn.convolution_11/convolution", "22920"], "attr": {"T": {"type": "DT_FLOAT"}}}, {"name": "PartitionedCall/PartitionedCall/PartitionedCall/tf.math.sigmoid_11/Sigmoid", "op": "Sigmoid", "input": ["PartitionedCall/PartitionedCall/PartitionedCall/tf.math.add_13/Add"], "attr": {"T": {"type": "DT_FLOAT"}}}, {"name": "PartitionedCall/PartitionedCall/PartitionedCall/tf.math.multiply_39/Mul", "op": "Mul", "input": ["PartitionedCall/PartitionedCall/PartitionedCall/tf.math.add_13/Add", "PartitionedCall/PartitionedCall/PartitionedCall/tf.math.sigmoid_11/Sigmoid"], "attr": {"T": {"type": "DT_FLOAT"}}}, {"name": "PartitionedCall/PartitionedCall/PartitionedCall/tf.math.add_14/Add", "op": "AddV2", "input": ["PartitionedCall/PartitionedCall/PartitionedCall/tf.math.add_11/Add", "PartitionedCall/PartitionedCall/PartitionedCall/tf.math.multiply_39/Mul"], "attr": {"T": {"type": "DT_FLOAT"}}}, {"name": "PartitionedCall/PartitionedCall/PartitionedCall/tf.concat_1/concat", "op": "ConcatV2", "input": ["PartitionedCall/PartitionedCall/PartitionedCall/tf.strided_slice_2/StridedSlice", "PartitionedCall/PartitionedCall/PartitionedCall/tf.strided_slice_3/StridedSlice", "PartitionedCall/PartitionedCall/PartitionedCall/tf.math.add_11/Add", "PartitionedCall/PartitionedCall/PartitionedCall/tf.math.add_14/Add", "PartitionedCall/PartitionedCall/PartitionedCall/tf.concat_1/concat/axis"], "attr": {"Tidx": {"type": "DT_INT32"}, "T": {"type": "DT_FLOAT"}, "N": {"i": "4"}}}, {"name": "PartitionedCall/PartitionedCall/PartitionedCall/tf.nn.convolution_12/convolution", "op": "Conv2D", "input": ["PartitionedCall/PartitionedCall/PartitionedCall/tf.concat_1/concat", "22926"], "device": "/device:CPU:0", "attr": {"data_format": {"s": "TkhXQw=="}, "strides": {"list": {"i": ["1", "1", "1", "1"]}}, "dilations": {"list": {"i": ["1", "1", "1", "1"]}}, "T": {"type": "DT_FLOAT"}, "explicit_paddings": {"list": {}}, "use_cudnn_on_gpu": {"b": true}, "padding": {"s": "U0FNRQ=="}}}, {"name": "PartitionedCall/PartitionedCall/PartitionedCall/tf.math.add_15/Add", "op": "AddV2", "input": ["PartitionedCall/PartitionedCall/PartitionedCall/tf.nn.convolution_12/convolution", "22928"], "attr": {"T": {"type": "DT_FLOAT"}}}, {"name": "PartitionedCall/PartitionedCall/PartitionedCall/tf.math.sigmoid_12/Sigmoid", "op": "Sigmoid", "input": ["PartitionedCall/PartitionedCall/PartitionedCall/tf.math.add_15/Add"], "attr": {"T": {"type": "DT_FLOAT"}}}, {"name": "PartitionedCall/PartitionedCall/PartitionedCall/tf.math.multiply_44/Mul", "op": "Mul", "input": ["PartitionedCall/PartitionedCall/PartitionedCall/tf.math.add_15/Add", "PartitionedCall/PartitionedCall/PartitionedCall/tf.math.sigmoid_12/Sigmoid"], "attr": {"T": {"type": "DT_FLOAT"}}}, {"name": "PartitionedCall/PartitionedCall/PartitionedCall/tf.compat.v1.pad_3/Pad", "op": "Pad", "input": ["PartitionedCall/PartitionedCall/PartitionedCall/tf.math.multiply_44/Mul", "22930"], "attr": {"T": {"type": "DT_FLOAT"}, "Tpaddings": {"type": "DT_INT32"}}}, {"name": "PartitionedCall/PartitionedCall/PartitionedCall/tf.nn.convolution_13/convolution", "op": "Conv2D", "input": ["PartitionedCall/PartitionedCall/PartitionedCall/tf.compat.v1.pad_3/Pad", "22932"], "device": "/device:CPU:0", "attr": {"explicit_paddings": {"list": {}}, "strides": {"list": {"i": ["1", "2", "2", "1"]}}, "dilations": {"list": {"i": ["1", "1", "1", "1"]}}, "data_format": {"s": "TkhXQw=="}, "use_cudnn_on_gpu": {"b": true}, "padding": {"s": "VkFMSUQ="}, "T": {"type": "DT_FLOAT"}}}, {"name": "PartitionedCall/PartitionedCall/PartitionedCall/tf.math.add_16/Add", "op": "AddV2", "input": ["PartitionedCall/PartitionedCall/PartitionedCall/tf.nn.convolution_13/convolution", "22934"], "attr": {"T": {"type": "DT_FLOAT"}}}, {"name": "PartitionedCall/PartitionedCall/PartitionedCall/tf.math.sigmoid_13/Sigmoid", "op": "Sigmoid", "input": ["PartitionedCall/PartitionedCall/PartitionedCall/tf.math.add_16/Add"], "attr": {"T": {"type": "DT_FLOAT"}}}, {"name": "PartitionedCall/PartitionedCall/PartitionedCall/tf.math.multiply_47/Mul", "op": "Mul", "input": ["PartitionedCall/PartitionedCall/PartitionedCall/tf.math.add_16/Add", "PartitionedCall/PartitionedCall/PartitionedCall/tf.math.sigmoid_13/Sigmoid"], "attr": {"T": {"type": "DT_FLOAT"}}}, {"name": "PartitionedCall/PartitionedCall/PartitionedCall/tf.nn.convolution_14/convolution", "op": "Conv2D", "input": ["PartitionedCall/PartitionedCall/PartitionedCall/tf.math.multiply_47/Mul", "22936"], "device": "/device:CPU:0", "attr": {"use_cudnn_on_gpu": {"b": true}, "data_format": {"s": "TkhXQw=="}, "padding": {"s": "U0FNRQ=="}, "dilations": {"list": {"i": ["1", "1", "1", "1"]}}, "explicit_paddings": {"list": {}}, "T": {"type": "DT_FLOAT"}, "strides": {"list": {"i": ["1", "1", "1", "1"]}}}}, {"name": "PartitionedCall/PartitionedCall/PartitionedCall/tf.math.add_17/Add", "op": "AddV2", "input": ["PartitionedCall/PartitionedCall/PartitionedCall/tf.nn.convolution_14/convolution", "22938"], "attr": {"T": {"type": "DT_FLOAT"}}}, {"name": "PartitionedCall/PartitionedCall/PartitionedCall/tf.math.sigmoid_14/Sigmoid", "op": "Sigmoid", "input": ["PartitionedCall/PartitionedCall/PartitionedCall/tf.math.add_17/Add"], "attr": {"T": {"type": "DT_FLOAT"}}}, {"name": "PartitionedCall/PartitionedCall/PartitionedCall/tf.math.multiply_50/Mul", "op": "Mul", "input": ["PartitionedCall/PartitionedCall/PartitionedCall/tf.math.add_17/Add", "PartitionedCall/PartitionedCall/PartitionedCall/tf.math.sigmoid_14/Sigmoid"], "attr": {"T": {"type": "DT_FLOAT"}}}, {"name": "PartitionedCall/PartitionedCall/PartitionedCall/tf.strided_slice_4/StridedSlice", "op": "StridedSlice", "input": ["PartitionedCall/PartitionedCall/PartitionedCall/tf.math.multiply_50/Mul", "22960", "22962", "PartitionedCall/PartitionedCall/PartitionedCall/tf.strided_slice_4/ones_like"], "attr": {"begin_mask": {"i": "15"}, "shrink_axis_mask": {"i": "0"}, "ellipsis_mask": {"i": "0"}, "Index": {"type": "DT_INT64"}, "T": {"type": "DT_FLOAT"}, "new_axis_mask": {"i": "0"}, "end_mask": {"i": "7"}}}, {"name": "PartitionedCall/PartitionedCall/PartitionedCall/tf.strided_slice_5/StridedSlice", "op": "StridedSlice", "input": ["PartitionedCall/PartitionedCall/PartitionedCall/tf.math.multiply_50/Mul", "22940", "22942", "PartitionedCall/PartitionedCall/PartitionedCall/tf.strided_slice_5/ones_like"], "attr": {"T": {"type": "DT_FLOAT"}, "Index": {"type": "DT_INT64"}, "shrink_axis_mask": {"i": "0"}, "new_axis_mask": {"i": "0"}, "end_mask": {"i": "7"}, "begin_mask": {"i": "7"}, "ellipsis_mask": {"i": "0"}}}, {"name": "PartitionedCall/PartitionedCall/PartitionedCall/tf.nn.convolution_15/convolution", "op": "Conv2D", "input": ["PartitionedCall/PartitionedCall/PartitionedCall/tf.strided_slice_5/StridedSlice", "22944"], "device": "/device:CPU:0", "attr": {"strides": {"list": {"i": ["1", "1", "1", "1"]}}, "padding": {"s": "U0FNRQ=="}, "dilations": {"list": {"i": ["1", "1", "1", "1"]}}, "explicit_paddings": {"list": {}}, "T": {"type": "DT_FLOAT"}, "use_cudnn_on_gpu": {"b": true}, "data_format": {"s": "TkhXQw=="}}}, {"name": "PartitionedCall/PartitionedCall/PartitionedCall/tf.math.add_18/Add", "op": "AddV2", "input": ["PartitionedCall/PartitionedCall/PartitionedCall/tf.nn.convolution_15/convolution", "22946"], "attr": {"T": {"type": "DT_FLOAT"}}}, {"name": "PartitionedCall/PartitionedCall/PartitionedCall/tf.math.sigmoid_15/Sigmoid", "op": "Sigmoid", "input": ["PartitionedCall/PartitionedCall/PartitionedCall/tf.math.add_18/Add"], "attr": {"T": {"type": "DT_FLOAT"}}}, {"name": "PartitionedCall/PartitionedCall/PartitionedCall/tf.math.multiply_53/Mul", "op": "Mul", "input": ["PartitionedCall/PartitionedCall/PartitionedCall/tf.math.add_18/Add", "PartitionedCall/PartitionedCall/PartitionedCall/tf.math.sigmoid_15/Sigmoid"], "attr": {"T": {"type": "DT_FLOAT"}}}, {"name": "PartitionedCall/PartitionedCall/PartitionedCall/tf.nn.convolution_16/convolution", "op": "Conv2D", "input": ["PartitionedCall/PartitionedCall/PartitionedCall/tf.math.multiply_53/Mul", "22948"], "device": "/device:CPU:0", "attr": {"use_cudnn_on_gpu": {"b": true}, "strides": {"list": {"i": ["1", "1", "1", "1"]}}, "dilations": {"list": {"i": ["1", "1", "1", "1"]}}, "T": {"type": "DT_FLOAT"}, "explicit_paddings": {"list": {}}, "data_format": {"s": "TkhXQw=="}, "padding": {"s": "U0FNRQ=="}}}, {"name": "PartitionedCall/PartitionedCall/PartitionedCall/tf.math.add_19/Add", "op": "AddV2", "input": ["PartitionedCall/PartitionedCall/PartitionedCall/tf.nn.convolution_16/convolution", "22950"], "attr": {"T": {"type": "DT_FLOAT"}}}, {"name": "PartitionedCall/PartitionedCall/PartitionedCall/tf.math.sigmoid_16/Sigmoid", "op": "Sigmoid", "input": ["PartitionedCall/PartitionedCall/PartitionedCall/tf.math.add_19/Add"], "attr": {"T": {"type": "DT_FLOAT"}}}, {"name": "PartitionedCall/PartitionedCall/PartitionedCall/tf.math.multiply_56/Mul", "op": "Mul", "input": ["PartitionedCall/PartitionedCall/PartitionedCall/tf.math.add_19/Add", "PartitionedCall/PartitionedCall/PartitionedCall/tf.math.sigmoid_16/Sigmoid"], "attr": {"T": {"type": "DT_FLOAT"}}}, {"name": "PartitionedCall/PartitionedCall/PartitionedCall/tf.math.add_20/Add", "op": "AddV2", "input": ["PartitionedCall/PartitionedCall/PartitionedCall/tf.strided_slice_5/StridedSlice", "PartitionedCall/PartitionedCall/PartitionedCall/tf.math.multiply_56/Mul"], "attr": {"T": {"type": "DT_FLOAT"}}}, {"name": "PartitionedCall/PartitionedCall/PartitionedCall/tf.nn.convolution_17/convolution", "op": "Conv2D", "input": ["PartitionedCall/PartitionedCall/PartitionedCall/tf.math.add_20/Add", "22952"], "device": "/device:CPU:0", "attr": {"T": {"type": "DT_FLOAT"}, "data_format": {"s": "TkhXQw=="}, "use_cudnn_on_gpu": {"b": true}, "padding": {"s": "U0FNRQ=="}, "dilations": {"list": {"i": ["1", "1", "1", "1"]}}, "strides": {"list": {"i": ["1", "1", "1", "1"]}}, "explicit_paddings": {"list": {}}}}, {"name": "PartitionedCall/PartitionedCall/PartitionedCall/tf.math.add_21/Add", "op": "AddV2", "input": ["PartitionedCall/PartitionedCall/PartitionedCall/tf.nn.convolution_17/convolution", "22954"], "attr": {"T": {"type": "DT_FLOAT"}}}, {"name": "PartitionedCall/PartitionedCall/PartitionedCall/tf.math.sigmoid_17/Sigmoid", "op": "Sigmoid", "input": ["PartitionedCall/PartitionedCall/PartitionedCall/tf.math.add_21/Add"], "attr": {"T": {"type": "DT_FLOAT"}}}, {"name": "PartitionedCall/PartitionedCall/PartitionedCall/tf.math.multiply_61/Mul", "op": "Mul", "input": ["PartitionedCall/PartitionedCall/PartitionedCall/tf.math.add_21/Add", "PartitionedCall/PartitionedCall/PartitionedCall/tf.math.sigmoid_17/Sigmoid"], "attr": {"T": {"type": "DT_FLOAT"}}}, {"name": "PartitionedCall/PartitionedCall/PartitionedCall/tf.nn.convolution_18/convolution", "op": "Conv2D", "input": ["PartitionedCall/PartitionedCall/PartitionedCall/tf.math.multiply_61/Mul", "22956"], "device": "/device:CPU:0", "attr": {"use_cudnn_on_gpu": {"b": true}, "T": {"type": "DT_FLOAT"}, "data_format": {"s": "TkhXQw=="}, "strides": {"list": {"i": ["1", "1", "1", "1"]}}, "padding": {"s": "U0FNRQ=="}, "dilations": {"list": {"i": ["1", "1", "1", "1"]}}, "explicit_paddings": {"list": {}}}}, {"name": "PartitionedCall/PartitionedCall/PartitionedCall/tf.math.add_22/Add", "op": "AddV2", "input": ["PartitionedCall/PartitionedCall/PartitionedCall/tf.nn.convolution_18/convolution", "22958"], "attr": {"T": {"type": "DT_FLOAT"}}}, {"name": "PartitionedCall/PartitionedCall/PartitionedCall/tf.math.sigmoid_18/Sigmoid", "op": "Sigmoid", "input": ["PartitionedCall/PartitionedCall/PartitionedCall/tf.math.add_22/Add"], "attr": {"T": {"type": "DT_FLOAT"}}}, {"name": "PartitionedCall/PartitionedCall/PartitionedCall/tf.math.multiply_64/Mul", "op": "Mul", "input": ["PartitionedCall/PartitionedCall/PartitionedCall/tf.math.add_22/Add", "PartitionedCall/PartitionedCall/PartitionedCall/tf.math.sigmoid_18/Sigmoid"], "attr": {"T": {"type": "DT_FLOAT"}}}, {"name": "PartitionedCall/PartitionedCall/PartitionedCall/tf.math.add_23/Add", "op": "AddV2", "input": ["PartitionedCall/PartitionedCall/PartitionedCall/tf.math.add_20/Add", "PartitionedCall/PartitionedCall/PartitionedCall/tf.math.multiply_64/Mul"], "attr": {"T": {"type": "DT_FLOAT"}}}, {"name": "PartitionedCall/PartitionedCall/PartitionedCall/tf.concat_2/concat", "op": "ConcatV2", "input": ["PartitionedCall/PartitionedCall/PartitionedCall/tf.strided_slice_4/StridedSlice", "PartitionedCall/PartitionedCall/PartitionedCall/tf.strided_slice_5/StridedSlice", "PartitionedCall/PartitionedCall/PartitionedCall/tf.math.add_20/Add", "PartitionedCall/PartitionedCall/PartitionedCall/tf.math.add_23/Add", "PartitionedCall/PartitionedCall/PartitionedCall/tf.concat_2/concat/axis"], "attr": {"Tidx": {"type": "DT_INT32"}, "N": {"i": "4"}, "T": {"type": "DT_FLOAT"}}}, {"name": "PartitionedCall/PartitionedCall/PartitionedCall/tf.nn.convolution_19/convolution", "op": "Conv2D", "input": ["PartitionedCall/PartitionedCall/PartitionedCall/tf.concat_2/concat", "22964"], "device": "/device:CPU:0", "attr": {"strides": {"list": {"i": ["1", "1", "1", "1"]}}, "padding": {"s": "U0FNRQ=="}, "T": {"type": "DT_FLOAT"}, "data_format": {"s": "TkhXQw=="}, "explicit_paddings": {"list": {}}, "use_cudnn_on_gpu": {"b": true}, "dilations": {"list": {"i": ["1", "1", "1", "1"]}}}}, {"name": "PartitionedCall/PartitionedCall/PartitionedCall/tf.math.add_24/Add", "op": "AddV2", "input": ["PartitionedCall/PartitionedCall/PartitionedCall/tf.nn.convolution_19/convolution", "22966"], "attr": {"T": {"type": "DT_FLOAT"}}}, {"name": "PartitionedCall/PartitionedCall/PartitionedCall/tf.math.sigmoid_19/Sigmoid", "op": "Sigmoid", "input": ["PartitionedCall/PartitionedCall/PartitionedCall/tf.math.add_24/Add"], "attr": {"T": {"type": "DT_FLOAT"}}}, {"name": "PartitionedCall/PartitionedCall/PartitionedCall/tf.math.multiply_69/Mul", "op": "Mul", "input": ["PartitionedCall/PartitionedCall/PartitionedCall/tf.math.add_24/Add", "PartitionedCall/PartitionedCall/PartitionedCall/tf.math.sigmoid_19/Sigmoid"], "attr": {"T": {"type": "DT_FLOAT"}}}, {"name": "PartitionedCall/PartitionedCall/PartitionedCall/tf.compat.v1.pad_4/Pad", "op": "Pad", "input": ["PartitionedCall/PartitionedCall/PartitionedCall/tf.math.multiply_69/Mul", "22968"], "attr": {"T": {"type": "DT_FLOAT"}, "Tpaddings": {"type": "DT_INT32"}}}, {"name": "PartitionedCall/PartitionedCall/PartitionedCall/tf.nn.convolution_20/convolution", "op": "Conv2D", "input": ["PartitionedCall/PartitionedCall/PartitionedCall/tf.compat.v1.pad_4/Pad", "22970"], "device": "/device:CPU:0", "attr": {"padding": {"s": "VkFMSUQ="}, "dilations": {"list": {"i": ["1", "1", "1", "1"]}}, "explicit_paddings": {"list": {}}, "data_format": {"s": "TkhXQw=="}, "use_cudnn_on_gpu": {"b": true}, "T": {"type": "DT_FLOAT"}, "strides": {"list": {"i": ["1", "2", "2", "1"]}}}}, {"name": "PartitionedCall/PartitionedCall/PartitionedCall/tf.math.add_25/Add", "op": "AddV2", "input": ["PartitionedCall/PartitionedCall/PartitionedCall/tf.nn.convolution_20/convolution", "22972"], "attr": {"T": {"type": "DT_FLOAT"}}}, {"name": "PartitionedCall/PartitionedCall/PartitionedCall/tf.math.sigmoid_20/Sigmoid", "op": "Sigmoid", "input": ["PartitionedCall/PartitionedCall/PartitionedCall/tf.math.add_25/Add"], "attr": {"T": {"type": "DT_FLOAT"}}}, {"name": "PartitionedCall/PartitionedCall/PartitionedCall/tf.math.multiply_72/Mul", "op": "Mul", "input": ["PartitionedCall/PartitionedCall/PartitionedCall/tf.math.add_25/Add", "PartitionedCall/PartitionedCall/PartitionedCall/tf.math.sigmoid_20/Sigmoid"], "attr": {"T": {"type": "DT_FLOAT"}}}, {"name": "PartitionedCall/PartitionedCall/PartitionedCall/tf.nn.convolution_21/convolution", "op": "Conv2D", "input": ["PartitionedCall/PartitionedCall/PartitionedCall/tf.math.multiply_72/Mul", "22974"], "device": "/device:CPU:0", "attr": {"T": {"type": "DT_FLOAT"}, "dilations": {"list": {"i": ["1", "1", "1", "1"]}}, "padding": {"s": "U0FNRQ=="}, "strides": {"list": {"i": ["1", "1", "1", "1"]}}, "use_cudnn_on_gpu": {"b": true}, "explicit_paddings": {"list": {}}, "data_format": {"s": "TkhXQw=="}}}, {"name": "PartitionedCall/PartitionedCall/PartitionedCall/tf.math.add_26/Add", "op": "AddV2", "input": ["PartitionedCall/PartitionedCall/PartitionedCall/tf.nn.convolution_21/convolution", "22976"], "attr": {"T": {"type": "DT_FLOAT"}}}, {"name": "PartitionedCall/PartitionedCall/PartitionedCall/tf.math.sigmoid_21/Sigmoid", "op": "Sigmoid", "input": ["PartitionedCall/PartitionedCall/PartitionedCall/tf.math.add_26/Add"], "attr": {"T": {"type": "DT_FLOAT"}}}, {"name": "PartitionedCall/PartitionedCall/PartitionedCall/tf.math.multiply_75/Mul", "op": "Mul", "input": ["PartitionedCall/PartitionedCall/PartitionedCall/tf.math.add_26/Add", "PartitionedCall/PartitionedCall/PartitionedCall/tf.math.sigmoid_21/Sigmoid"], "attr": {"T": {"type": "DT_FLOAT"}}}, {"name": "PartitionedCall/PartitionedCall/PartitionedCall/tf.strided_slice_6/StridedSlice", "op": "StridedSlice", "input": ["PartitionedCall/PartitionedCall/PartitionedCall/tf.math.multiply_75/Mul", "22990", "22992", "PartitionedCall/PartitionedCall/PartitionedCall/tf.strided_slice_6/ones_like"], "attr": {"T": {"type": "DT_FLOAT"}, "Index": {"type": "DT_INT64"}, "ellipsis_mask": {"i": "0"}, "end_mask": {"i": "7"}, "new_axis_mask": {"i": "0"}, "shrink_axis_mask": {"i": "0"}, "begin_mask": {"i": "15"}}}, {"name": "PartitionedCall/PartitionedCall/PartitionedCall/tf.strided_slice_7/StridedSlice", "op": "StridedSlice", "input": ["PartitionedCall/PartitionedCall/PartitionedCall/tf.math.multiply_75/Mul", "22978", "22980", "PartitionedCall/PartitionedCall/PartitionedCall/tf.strided_slice_7/ones_like"], "attr": {"begin_mask": {"i": "7"}, "new_axis_mask": {"i": "0"}, "end_mask": {"i": "7"}, "ellipsis_mask": {"i": "0"}, "shrink_axis_mask": {"i": "0"}, "T": {"type": "DT_FLOAT"}, "Index": {"type": "DT_INT64"}}}, {"name": "PartitionedCall/PartitionedCall/PartitionedCall/tf.nn.convolution_22/convolution", "op": "Conv2D", "input": ["PartitionedCall/PartitionedCall/PartitionedCall/tf.strided_slice_7/StridedSlice", "22982"], "device": "/device:CPU:0", "attr": {"data_format": {"s": "TkhXQw=="}, "dilations": {"list": {"i": ["1", "1", "1", "1"]}}, "use_cudnn_on_gpu": {"b": true}, "padding": {"s": "U0FNRQ=="}, "explicit_paddings": {"list": {}}, "strides": {"list": {"i": ["1", "1", "1", "1"]}}, "T": {"type": "DT_FLOAT"}}}, {"name": "PartitionedCall/PartitionedCall/PartitionedCall/tf.math.add_27/Add", "op": "AddV2", "input": ["PartitionedCall/PartitionedCall/PartitionedCall/tf.nn.convolution_22/convolution", "22984"], "attr": {"T": {"type": "DT_FLOAT"}}}, {"name": "PartitionedCall/PartitionedCall/PartitionedCall/tf.math.sigmoid_22/Sigmoid", "op": "Sigmoid", "input": ["PartitionedCall/PartitionedCall/PartitionedCall/tf.math.add_27/Add"], "attr": {"T": {"type": "DT_FLOAT"}}}, {"name": "PartitionedCall/PartitionedCall/PartitionedCall/tf.math.multiply_78/Mul", "op": "Mul", "input": ["PartitionedCall/PartitionedCall/PartitionedCall/tf.math.add_27/Add", "PartitionedCall/PartitionedCall/PartitionedCall/tf.math.sigmoid_22/Sigmoid"], "attr": {"T": {"type": "DT_FLOAT"}}}, {"name": "PartitionedCall/PartitionedCall/PartitionedCall/tf.nn.convolution_23/convolution", "op": "Conv2D", "input": ["PartitionedCall/PartitionedCall/PartitionedCall/tf.math.multiply_78/Mul", "22986"], "device": "/device:CPU:0", "attr": {"use_cudnn_on_gpu": {"b": true}, "T": {"type": "DT_FLOAT"}, "padding": {"s": "U0FNRQ=="}, "strides": {"list": {"i": ["1", "1", "1", "1"]}}, "explicit_paddings": {"list": {}}, "dilations": {"list": {"i": ["1", "1", "1", "1"]}}, "data_format": {"s": "TkhXQw=="}}}, {"name": "PartitionedCall/PartitionedCall/PartitionedCall/tf.math.add_28/Add", "op": "AddV2", "input": ["PartitionedCall/PartitionedCall/PartitionedCall/tf.nn.convolution_23/convolution", "22988"], "attr": {"T": {"type": "DT_FLOAT"}}}, {"name": "PartitionedCall/PartitionedCall/PartitionedCall/tf.math.sigmoid_23/Sigmoid", "op": "Sigmoid", "input": ["PartitionedCall/PartitionedCall/PartitionedCall/tf.math.add_28/Add"], "attr": {"T": {"type": "DT_FLOAT"}}}, {"name": "PartitionedCall/PartitionedCall/PartitionedCall/tf.math.multiply_81/Mul", "op": "Mul", "input": ["PartitionedCall/PartitionedCall/PartitionedCall/tf.math.add_28/Add", "PartitionedCall/PartitionedCall/PartitionedCall/tf.math.sigmoid_23/Sigmoid"], "attr": {"T": {"type": "DT_FLOAT"}}}, {"name": "PartitionedCall/PartitionedCall/PartitionedCall/tf.math.add_29/Add", "op": "AddV2", "input": ["PartitionedCall/PartitionedCall/PartitionedCall/tf.strided_slice_7/StridedSlice", "PartitionedCall/PartitionedCall/PartitionedCall/tf.math.multiply_81/Mul"], "attr": {"T": {"type": "DT_FLOAT"}}}, {"name": "PartitionedCall/PartitionedCall/PartitionedCall/tf.concat_3/concat", "op": "ConcatV2", "input": ["PartitionedCall/PartitionedCall/PartitionedCall/tf.strided_slice_6/StridedSlice", "PartitionedCall/PartitionedCall/PartitionedCall/tf.strided_slice_7/StridedSlice", "PartitionedCall/PartitionedCall/PartitionedCall/tf.math.add_29/Add", "PartitionedCall/PartitionedCall/PartitionedCall/tf.concat_3/concat/axis"], "attr": {"Tidx": {"type": "DT_INT32"}, "T": {"type": "DT_FLOAT"}, "N": {"i": "3"}}}, {"name": "PartitionedCall/PartitionedCall/PartitionedCall/tf.nn.convolution_24/convolution", "op": "Conv2D", "input": ["PartitionedCall/PartitionedCall/PartitionedCall/tf.concat_3/concat", "22994"], "device": "/device:CPU:0", "attr": {"use_cudnn_on_gpu": {"b": true}, "T": {"type": "DT_FLOAT"}, "strides": {"list": {"i": ["1", "1", "1", "1"]}}, "padding": {"s": "U0FNRQ=="}, "dilations": {"list": {"i": ["1", "1", "1", "1"]}}, "explicit_paddings": {"list": {}}, "data_format": {"s": "TkhXQw=="}}}, {"name": "PartitionedCall/PartitionedCall/PartitionedCall/tf.math.add_30/Add", "op": "AddV2", "input": ["PartitionedCall/PartitionedCall/PartitionedCall/tf.nn.convolution_24/convolution", "22996"], "attr": {"T": {"type": "DT_FLOAT"}}}, {"name": "PartitionedCall/PartitionedCall/PartitionedCall/tf.math.sigmoid_24/Sigmoid", "op": "Sigmoid", "input": ["PartitionedCall/PartitionedCall/PartitionedCall/tf.math.add_30/Add"], "attr": {"T": {"type": "DT_FLOAT"}}}, {"name": "PartitionedCall/PartitionedCall/PartitionedCall/tf.math.multiply_86/Mul", "op": "Mul", "input": ["PartitionedCall/PartitionedCall/PartitionedCall/tf.math.add_30/Add", "PartitionedCall/PartitionedCall/PartitionedCall/tf.math.sigmoid_24/Sigmoid"], "attr": {"T": {"type": "DT_FLOAT"}}}, {"name": "PartitionedCall/PartitionedCall/PartitionedCall/tf.nn.convolution_25/convolution", "op": "Conv2D", "input": ["PartitionedCall/PartitionedCall/PartitionedCall/tf.math.multiply_86/Mul", "22998"], "device": "/device:CPU:0", "attr": {"use_cudnn_on_gpu": {"b": true}, "strides": {"list": {"i": ["1", "1", "1", "1"]}}, "padding": {"s": "U0FNRQ=="}, "data_format": {"s": "TkhXQw=="}, "dilations": {"list": {"i": ["1", "1", "1", "1"]}}, "explicit_paddings": {"list": {}}, "T": {"type": "DT_FLOAT"}}}, {"name": "PartitionedCall/PartitionedCall/PartitionedCall/tf.math.add_31/Add", "op": "AddV2", "input": ["PartitionedCall/PartitionedCall/PartitionedCall/tf.nn.convolution_25/convolution", "23000"], "attr": {"T": {"type": "DT_FLOAT"}}}, {"name": "PartitionedCall/PartitionedCall/PartitionedCall/tf.math.sigmoid_25/Sigmoid", "op": "Sigmoid", "input": ["PartitionedCall/PartitionedCall/PartitionedCall/tf.math.add_31/Add"], "attr": {"T": {"type": "DT_FLOAT"}}}, {"name": "PartitionedCall/PartitionedCall/PartitionedCall/tf.math.multiply_89/Mul", "op": "Mul", "input": ["PartitionedCall/PartitionedCall/PartitionedCall/tf.math.add_31/Add", "PartitionedCall/PartitionedCall/PartitionedCall/tf.math.sigmoid_25/Sigmoid"], "attr": {"T": {"type": "DT_FLOAT"}}}, {"name": "PartitionedCall/PartitionedCall/PartitionedCall/tf.compat.v1.nn.pool/max_pool", "op": "MaxPool", "input": ["PartitionedCall/PartitionedCall/PartitionedCall/tf.math.multiply_89/Mul"], "attr": {"data_format": {"s": "TkhXQw=="}, "ksize": {"list": {"i": ["1", "5", "5", "1"]}}, "strides": {"list": {"i": ["1", "1", "1", "1"]}}, "T": {"type": "DT_FLOAT"}, "padding": {"s": "U0FNRQ=="}, "explicit_paddings": {"list": {}}}}, {"name": "PartitionedCall/PartitionedCall/PartitionedCall/tf.compat.v1.nn.pool_1/max_pool", "op": "MaxPool", "input": ["PartitionedCall/PartitionedCall/PartitionedCall/tf.compat.v1.nn.pool/max_pool"], "attr": {"strides": {"list": {"i": ["1", "1", "1", "1"]}}, "ksize": {"list": {"i": ["1", "5", "5", "1"]}}, "T": {"type": "DT_FLOAT"}, "padding": {"s": "U0FNRQ=="}, "data_format": {"s": "TkhXQw=="}, "explicit_paddings": {"list": {}}}}, {"name": "PartitionedCall/PartitionedCall/PartitionedCall/tf.compat.v1.nn.pool_2/max_pool", "op": "MaxPool", "input": ["PartitionedCall/PartitionedCall/PartitionedCall/tf.compat.v1.nn.pool_1/max_pool"], "attr": {"padding": {"s": "U0FNRQ=="}, "data_format": {"s": "TkhXQw=="}, "T": {"type": "DT_FLOAT"}, "explicit_paddings": {"list": {}}, "strides": {"list": {"i": ["1", "1", "1", "1"]}}, "ksize": {"list": {"i": ["1", "5", "5", "1"]}}}}, {"name": "PartitionedCall/PartitionedCall/PartitionedCall/tf.concat_4/concat", "op": "ConcatV2", "input": ["PartitionedCall/PartitionedCall/PartitionedCall/tf.math.multiply_89/Mul", "PartitionedCall/PartitionedCall/PartitionedCall/tf.compat.v1.nn.pool/max_pool", "PartitionedCall/PartitionedCall/PartitionedCall/tf.compat.v1.nn.pool_1/max_pool", "PartitionedCall/PartitionedCall/PartitionedCall/tf.compat.v1.nn.pool_2/max_pool", "PartitionedCall/PartitionedCall/PartitionedCall/tf.concat_4/concat/axis"], "attr": {"N": {"i": "4"}, "Tidx": {"type": "DT_INT32"}, "T": {"type": "DT_FLOAT"}}}, {"name": "PartitionedCall/PartitionedCall/PartitionedCall/tf.nn.convolution_26/convolution", "op": "Conv2D", "input": ["PartitionedCall/PartitionedCall/PartitionedCall/tf.concat_4/concat", "23002"], "device": "/device:CPU:0", "attr": {"strides": {"list": {"i": ["1", "1", "1", "1"]}}, "data_format": {"s": "TkhXQw=="}, "T": {"type": "DT_FLOAT"}, "padding": {"s": "U0FNRQ=="}, "use_cudnn_on_gpu": {"b": true}, "dilations": {"list": {"i": ["1", "1", "1", "1"]}}, "explicit_paddings": {"list": {}}}}, {"name": "PartitionedCall/PartitionedCall/PartitionedCall/tf.math.add_32/Add", "op": "AddV2", "input": ["PartitionedCall/PartitionedCall/PartitionedCall/tf.nn.convolution_26/convolution", "23004"], "attr": {"T": {"type": "DT_FLOAT"}}}, {"name": "PartitionedCall/PartitionedCall/PartitionedCall/tf.math.sigmoid_26/Sigmoid", "op": "Sigmoid", "input": ["PartitionedCall/PartitionedCall/PartitionedCall/tf.math.add_32/Add"], "attr": {"T": {"type": "DT_FLOAT"}}}, {"name": "PartitionedCall/PartitionedCall/PartitionedCall/tf.math.multiply_92/Mul", "op": "Mul", "input": ["PartitionedCall/PartitionedCall/PartitionedCall/tf.math.add_32/Add", "PartitionedCall/PartitionedCall/PartitionedCall/tf.math.sigmoid_26/Sigmoid"], "attr": {"T": {"type": "DT_FLOAT"}}}, {"name": "PartitionedCall/PartitionedCall/PartitionedCall/lambda/PartitionedCall/wa/model.10/Resize", "op": "ResizeNearestNeighbor", "input": ["PartitionedCall/PartitionedCall/PartitionedCall/tf.math.multiply_92/Mul", "PartitionedCall/PartitionedCall/PartitionedCall/lambda/PartitionedCall/wa/model.10/Resize/size"], "attr": {"align_corners": {"b": false}, "half_pixel_centers": {"b": false}, "T": {"type": "DT_FLOAT"}}}, {"name": "PartitionedCall/PartitionedCall/PartitionedCall/tf.concat_5/concat", "op": "ConcatV2", "input": ["PartitionedCall/PartitionedCall/PartitionedCall/lambda/PartitionedCall/wa/model.10/Resize", "PartitionedCall/PartitionedCall/PartitionedCall/tf.math.multiply_69/Mul", "PartitionedCall/PartitionedCall/PartitionedCall/tf.concat_5/concat/axis"], "attr": {"T": {"type": "DT_FLOAT"}, "Tidx": {"type": "DT_INT32"}, "N": {"i": "2"}}}, {"name": "PartitionedCall/PartitionedCall/PartitionedCall/tf.nn.convolution_27/convolution", "op": "Conv2D", "input": ["PartitionedCall/PartitionedCall/PartitionedCall/tf.concat_5/concat", "23006"], "device": "/device:CPU:0", "attr": {"T": {"type": "DT_FLOAT"}, "dilations": {"list": {"i": ["1", "1", "1", "1"]}}, "use_cudnn_on_gpu": {"b": true}, "strides": {"list": {"i": ["1", "1", "1", "1"]}}, "padding": {"s": "U0FNRQ=="}, "explicit_paddings": {"list": {}}, "data_format": {"s": "TkhXQw=="}}}, {"name": "PartitionedCall/PartitionedCall/PartitionedCall/tf.math.add_33/Add", "op": "AddV2", "input": ["PartitionedCall/PartitionedCall/PartitionedCall/tf.nn.convolution_27/convolution", "23008"], "attr": {"T": {"type": "DT_FLOAT"}}}, {"name": "PartitionedCall/PartitionedCall/PartitionedCall/tf.math.sigmoid_27/Sigmoid", "op": "Sigmoid", "input": ["PartitionedCall/PartitionedCall/PartitionedCall/tf.math.add_33/Add"], "attr": {"T": {"type": "DT_FLOAT"}}}, {"name": "PartitionedCall/PartitionedCall/PartitionedCall/tf.math.multiply_95/Mul", "op": "Mul", "input": ["PartitionedCall/PartitionedCall/PartitionedCall/tf.math.add_33/Add", "PartitionedCall/PartitionedCall/PartitionedCall/tf.math.sigmoid_27/Sigmoid"], "attr": {"T": {"type": "DT_FLOAT"}}}, {"name": "PartitionedCall/PartitionedCall/PartitionedCall/tf.strided_slice_8/StridedSlice", "op": "StridedSlice", "input": ["PartitionedCall/PartitionedCall/PartitionedCall/tf.math.multiply_95/Mul", "23022", "23024", "PartitionedCall/PartitionedCall/PartitionedCall/tf.strided_slice_8/ones_like"], "attr": {"new_axis_mask": {"i": "0"}, "end_mask": {"i": "7"}, "T": {"type": "DT_FLOAT"}, "shrink_axis_mask": {"i": "0"}, "begin_mask": {"i": "15"}, "Index": {"type": "DT_INT64"}, "ellipsis_mask": {"i": "0"}}}, {"name": "PartitionedCall/PartitionedCall/PartitionedCall/tf.strided_slice_9/StridedSlice", "op": "StridedSlice", "input": ["PartitionedCall/PartitionedCall/PartitionedCall/tf.math.multiply_95/Mul", "23010", "23012", "PartitionedCall/PartitionedCall/PartitionedCall/tf.strided_slice_9/ones_like"], "attr": {"Index": {"type": "DT_INT64"}, "T": {"type": "DT_FLOAT"}, "begin_mask": {"i": "7"}, "end_mask": {"i": "7"}, "new_axis_mask": {"i": "0"}, "ellipsis_mask": {"i": "0"}, "shrink_axis_mask": {"i": "0"}}}, {"name": "PartitionedCall/PartitionedCall/PartitionedCall/tf.nn.convolution_28/convolution", "op": "Conv2D", "input": ["PartitionedCall/PartitionedCall/PartitionedCall/tf.strided_slice_9/StridedSlice", "23014"], "device": "/device:CPU:0", "attr": {"padding": {"s": "U0FNRQ=="}, "dilations": {"list": {"i": ["1", "1", "1", "1"]}}, "T": {"type": "DT_FLOAT"}, "strides": {"list": {"i": ["1", "1", "1", "1"]}}, "data_format": {"s": "TkhXQw=="}, "use_cudnn_on_gpu": {"b": true}, "explicit_paddings": {"list": {}}}}, {"name": "PartitionedCall/PartitionedCall/PartitionedCall/tf.math.add_34/Add", "op": "AddV2", "input": ["PartitionedCall/PartitionedCall/PartitionedCall/tf.nn.convolution_28/convolution", "23016"], "attr": {"T": {"type": "DT_FLOAT"}}}, {"name": "PartitionedCall/PartitionedCall/PartitionedCall/tf.math.sigmoid_28/Sigmoid", "op": "Sigmoid", "input": ["PartitionedCall/PartitionedCall/PartitionedCall/tf.math.add_34/Add"], "attr": {"T": {"type": "DT_FLOAT"}}}, {"name": "PartitionedCall/PartitionedCall/PartitionedCall/tf.math.multiply_98/Mul", "op": "Mul", "input": ["PartitionedCall/PartitionedCall/PartitionedCall/tf.math.add_34/Add", "PartitionedCall/PartitionedCall/PartitionedCall/tf.math.sigmoid_28/Sigmoid"], "attr": {"T": {"type": "DT_FLOAT"}}}, {"name": "PartitionedCall/PartitionedCall/PartitionedCall/tf.nn.convolution_29/convolution", "op": "Conv2D", "input": ["PartitionedCall/PartitionedCall/PartitionedCall/tf.math.multiply_98/Mul", "23018"], "device": "/device:CPU:0", "attr": {"padding": {"s": "U0FNRQ=="}, "data_format": {"s": "TkhXQw=="}, "dilations": {"list": {"i": ["1", "1", "1", "1"]}}, "T": {"type": "DT_FLOAT"}, "use_cudnn_on_gpu": {"b": true}, "strides": {"list": {"i": ["1", "1", "1", "1"]}}, "explicit_paddings": {"list": {}}}}, {"name": "PartitionedCall/PartitionedCall/PartitionedCall/tf.math.add_35/Add", "op": "AddV2", "input": ["PartitionedCall/PartitionedCall/PartitionedCall/tf.nn.convolution_29/convolution", "23020"], "attr": {"T": {"type": "DT_FLOAT"}}}, {"name": "PartitionedCall/PartitionedCall/PartitionedCall/tf.math.sigmoid_29/Sigmoid", "op": "Sigmoid", "input": ["PartitionedCall/PartitionedCall/PartitionedCall/tf.math.add_35/Add"], "attr": {"T": {"type": "DT_FLOAT"}}}, {"name": "PartitionedCall/PartitionedCall/PartitionedCall/tf.math.multiply_101/Mul", "op": "Mul", "input": ["PartitionedCall/PartitionedCall/PartitionedCall/tf.math.add_35/Add", "PartitionedCall/PartitionedCall/PartitionedCall/tf.math.sigmoid_29/Sigmoid"], "attr": {"T": {"type": "DT_FLOAT"}}}, {"name": "PartitionedCall/PartitionedCall/PartitionedCall/tf.concat_6/concat", "op": "ConcatV2", "input": ["PartitionedCall/PartitionedCall/PartitionedCall/tf.strided_slice_8/StridedSlice", "PartitionedCall/PartitionedCall/PartitionedCall/tf.strided_slice_9/StridedSlice", "PartitionedCall/PartitionedCall/PartitionedCall/tf.math.multiply_101/Mul", "PartitionedCall/PartitionedCall/PartitionedCall/tf.concat_6/concat/axis"], "attr": {"N": {"i": "3"}, "T": {"type": "DT_FLOAT"}, "Tidx": {"type": "DT_INT32"}}}, {"name": "PartitionedCall/PartitionedCall/PartitionedCall/tf.nn.convolution_30/convolution", "op": "Conv2D", "input": ["PartitionedCall/PartitionedCall/PartitionedCall/tf.concat_6/concat", "23026"], "device": "/device:CPU:0", "attr": {"explicit_paddings": {"list": {}}, "T": {"type": "DT_FLOAT"}, "padding": {"s": "U0FNRQ=="}, "data_format": {"s": "TkhXQw=="}, "use_cudnn_on_gpu": {"b": true}, "strides": {"list": {"i": ["1", "1", "1", "1"]}}, "dilations": {"list": {"i": ["1", "1", "1", "1"]}}}}, {"name": "PartitionedCall/PartitionedCall/PartitionedCall/tf.math.add_36/Add", "op": "AddV2", "input": ["PartitionedCall/PartitionedCall/PartitionedCall/tf.nn.convolution_30/convolution", "23028"], "attr": {"T": {"type": "DT_FLOAT"}}}, {"name": "PartitionedCall/PartitionedCall/PartitionedCall/tf.math.sigmoid_30/Sigmoid", "op": "Sigmoid", "input": ["PartitionedCall/PartitionedCall/PartitionedCall/tf.math.add_36/Add"], "attr": {"T": {"type": "DT_FLOAT"}}}, {"name": "PartitionedCall/PartitionedCall/PartitionedCall/tf.math.multiply_104/Mul", "op": "Mul", "input": ["PartitionedCall/PartitionedCall/PartitionedCall/tf.math.add_36/Add", "PartitionedCall/PartitionedCall/PartitionedCall/tf.math.sigmoid_30/Sigmoid"], "attr": {"T": {"type": "DT_FLOAT"}}}, {"name": "PartitionedCall/PartitionedCall/PartitionedCall/lambda_1/PartitionedCall/wa/model.13/Resize", "op": "ResizeNearestNeighbor", "input": ["PartitionedCall/PartitionedCall/PartitionedCall/tf.math.multiply_104/Mul", "PartitionedCall/PartitionedCall/PartitionedCall/lambda_1/PartitionedCall/wa/model.13/Resize/size"], "attr": {"half_pixel_centers": {"b": false}, "align_corners": {"b": false}, "T": {"type": "DT_FLOAT"}}}, {"name": "PartitionedCall/PartitionedCall/PartitionedCall/tf.concat_7/concat", "op": "ConcatV2", "input": ["PartitionedCall/PartitionedCall/PartitionedCall/lambda_1/PartitionedCall/wa/model.13/Resize", "PartitionedCall/PartitionedCall/PartitionedCall/tf.math.multiply_44/Mul", "PartitionedCall/PartitionedCall/PartitionedCall/tf.concat_7/concat/axis"], "attr": {"Tidx": {"type": "DT_INT32"}, "T": {"type": "DT_FLOAT"}, "N": {"i": "2"}}}, {"name": "PartitionedCall/PartitionedCall/PartitionedCall/tf.nn.convolution_31/convolution", "op": "Conv2D", "input": ["PartitionedCall/PartitionedCall/PartitionedCall/tf.concat_7/concat", "23030"], "device": "/device:CPU:0", "attr": {"explicit_paddings": {"list": {}}, "use_cudnn_on_gpu": {"b": true}, "T": {"type": "DT_FLOAT"}, "strides": {"list": {"i": ["1", "1", "1", "1"]}}, "data_format": {"s": "TkhXQw=="}, "dilations": {"list": {"i": ["1", "1", "1", "1"]}}, "padding": {"s": "U0FNRQ=="}}}, {"name": "PartitionedCall/PartitionedCall/PartitionedCall/tf.math.add_37/Add", "op": "AddV2", "input": ["PartitionedCall/PartitionedCall/PartitionedCall/tf.nn.convolution_31/convolution", "23032"], "attr": {"T": {"type": "DT_FLOAT"}}}, {"name": "PartitionedCall/PartitionedCall/PartitionedCall/tf.math.sigmoid_31/Sigmoid", "op": "Sigmoid", "input": ["PartitionedCall/PartitionedCall/PartitionedCall/tf.math.add_37/Add"], "attr": {"T": {"type": "DT_FLOAT"}}}, {"name": "PartitionedCall/PartitionedCall/PartitionedCall/tf.math.multiply_107/Mul", "op": "Mul", "input": ["PartitionedCall/PartitionedCall/PartitionedCall/tf.math.add_37/Add", "PartitionedCall/PartitionedCall/PartitionedCall/tf.math.sigmoid_31/Sigmoid"], "attr": {"T": {"type": "DT_FLOAT"}}}, {"name": "PartitionedCall/PartitionedCall/PartitionedCall/tf.strided_slice_10/StridedSlice", "op": "StridedSlice", "input": ["PartitionedCall/PartitionedCall/PartitionedCall/tf.math.multiply_107/Mul", "23046", "23048", "PartitionedCall/PartitionedCall/PartitionedCall/tf.strided_slice_10/ones_like"], "attr": {"ellipsis_mask": {"i": "0"}, "begin_mask": {"i": "15"}, "T": {"type": "DT_FLOAT"}, "new_axis_mask": {"i": "0"}, "Index": {"type": "DT_INT64"}, "shrink_axis_mask": {"i": "0"}, "end_mask": {"i": "7"}}}, {"name": "PartitionedCall/PartitionedCall/PartitionedCall/tf.strided_slice_11/StridedSlice", "op": "StridedSlice", "input": ["PartitionedCall/PartitionedCall/PartitionedCall/tf.math.multiply_107/Mul", "23034", "23036", "PartitionedCall/PartitionedCall/PartitionedCall/tf.strided_slice_11/ones_like"], "attr": {"Index": {"type": "DT_INT64"}, "ellipsis_mask": {"i": "0"}, "end_mask": {"i": "7"}, "begin_mask": {"i": "7"}, "shrink_axis_mask": {"i": "0"}, "new_axis_mask": {"i": "0"}, "T": {"type": "DT_FLOAT"}}}, {"name": "PartitionedCall/PartitionedCall/PartitionedCall/tf.nn.convolution_32/convolution", "op": "Conv2D", "input": ["PartitionedCall/PartitionedCall/PartitionedCall/tf.strided_slice_11/StridedSlice", "23038"], "device": "/device:CPU:0", "attr": {"padding": {"s": "U0FNRQ=="}, "T": {"type": "DT_FLOAT"}, "explicit_paddings": {"list": {}}, "use_cudnn_on_gpu": {"b": true}, "data_format": {"s": "TkhXQw=="}, "dilations": {"list": {"i": ["1", "1", "1", "1"]}}, "strides": {"list": {"i": ["1", "1", "1", "1"]}}}}, {"name": "PartitionedCall/PartitionedCall/PartitionedCall/tf.math.add_38/Add", "op": "AddV2", "input": ["PartitionedCall/PartitionedCall/PartitionedCall/tf.nn.convolution_32/convolution", "23040"], "attr": {"T": {"type": "DT_FLOAT"}}}, {"name": "PartitionedCall/PartitionedCall/PartitionedCall/tf.math.sigmoid_32/Sigmoid", "op": "Sigmoid", "input": ["PartitionedCall/PartitionedCall/PartitionedCall/tf.math.add_38/Add"], "attr": {"T": {"type": "DT_FLOAT"}}}, {"name": "PartitionedCall/PartitionedCall/PartitionedCall/tf.math.multiply_110/Mul", "op": "Mul", "input": ["PartitionedCall/PartitionedCall/PartitionedCall/tf.math.add_38/Add", "PartitionedCall/PartitionedCall/PartitionedCall/tf.math.sigmoid_32/Sigmoid"], "attr": {"T": {"type": "DT_FLOAT"}}}, {"name": "PartitionedCall/PartitionedCall/PartitionedCall/tf.nn.convolution_33/convolution", "op": "Conv2D", "input": ["PartitionedCall/PartitionedCall/PartitionedCall/tf.math.multiply_110/Mul", "23042"], "device": "/device:CPU:0", "attr": {"strides": {"list": {"i": ["1", "1", "1", "1"]}}, "padding": {"s": "U0FNRQ=="}, "T": {"type": "DT_FLOAT"}, "use_cudnn_on_gpu": {"b": true}, "explicit_paddings": {"list": {}}, "dilations": {"list": {"i": ["1", "1", "1", "1"]}}, "data_format": {"s": "TkhXQw=="}}}, {"name": "PartitionedCall/PartitionedCall/PartitionedCall/tf.math.add_39/Add", "op": "AddV2", "input": ["PartitionedCall/PartitionedCall/PartitionedCall/tf.nn.convolution_33/convolution", "23044"], "attr": {"T": {"type": "DT_FLOAT"}}}, {"name": "PartitionedCall/PartitionedCall/PartitionedCall/tf.math.sigmoid_33/Sigmoid", "op": "Sigmoid", "input": ["PartitionedCall/PartitionedCall/PartitionedCall/tf.math.add_39/Add"], "attr": {"T": {"type": "DT_FLOAT"}}}, {"name": "PartitionedCall/PartitionedCall/PartitionedCall/tf.math.multiply_113/Mul", "op": "Mul", "input": ["PartitionedCall/PartitionedCall/PartitionedCall/tf.math.add_39/Add", "PartitionedCall/PartitionedCall/PartitionedCall/tf.math.sigmoid_33/Sigmoid"], "attr": {"T": {"type": "DT_FLOAT"}}}, {"name": "PartitionedCall/PartitionedCall/PartitionedCall/tf.concat_8/concat", "op": "ConcatV2", "input": ["PartitionedCall/PartitionedCall/PartitionedCall/tf.strided_slice_10/StridedSlice", "PartitionedCall/PartitionedCall/PartitionedCall/tf.strided_slice_11/StridedSlice", "PartitionedCall/PartitionedCall/PartitionedCall/tf.math.multiply_113/Mul", "PartitionedCall/PartitionedCall/PartitionedCall/tf.concat_8/concat/axis"], "attr": {"T": {"type": "DT_FLOAT"}, "N": {"i": "3"}, "Tidx": {"type": "DT_INT32"}}}, {"name": "PartitionedCall/PartitionedCall/PartitionedCall/tf.nn.convolution_34/convolution", "op": "Conv2D", "input": ["PartitionedCall/PartitionedCall/PartitionedCall/tf.concat_8/concat", "23050"], "device": "/device:CPU:0", "attr": {"padding": {"s": "U0FNRQ=="}, "use_cudnn_on_gpu": {"b": true}, "data_format": {"s": "TkhXQw=="}, "T": {"type": "DT_FLOAT"}, "dilations": {"list": {"i": ["1", "1", "1", "1"]}}, "strides": {"list": {"i": ["1", "1", "1", "1"]}}, "explicit_paddings": {"list": {}}}}, {"name": "PartitionedCall/PartitionedCall/PartitionedCall/tf.math.add_40/Add", "op": "AddV2", "input": ["PartitionedCall/PartitionedCall/PartitionedCall/tf.nn.convolution_34/convolution", "23052"], "attr": {"T": {"type": "DT_FLOAT"}}}, {"name": "PartitionedCall/PartitionedCall/PartitionedCall/tf.math.sigmoid_34/Sigmoid", "op": "Sigmoid", "input": ["PartitionedCall/PartitionedCall/PartitionedCall/tf.math.add_40/Add"], "attr": {"T": {"type": "DT_FLOAT"}}}, {"name": "PartitionedCall/PartitionedCall/PartitionedCall/tf.math.multiply_116/Mul", "op": "Mul", "input": ["PartitionedCall/PartitionedCall/PartitionedCall/tf.math.add_40/Add", "PartitionedCall/PartitionedCall/PartitionedCall/tf.math.sigmoid_34/Sigmoid"], "attr": {"T": {"type": "DT_FLOAT"}}}, {"name": "PartitionedCall/PartitionedCall/PartitionedCall/tf.nn.convolution_36/convolution", "op": "Conv2D", "input": ["PartitionedCall/PartitionedCall/PartitionedCall/tf.math.multiply_116/Mul", "23124"], "device": "/device:CPU:0", "attr": {"data_format": {"s": "TkhXQw=="}, "padding": {"s": "U0FNRQ=="}, "T": {"type": "DT_FLOAT"}, "strides": {"list": {"i": ["1", "1", "1", "1"]}}, "explicit_paddings": {"list": {}}, "dilations": {"list": {"i": ["1", "1", "1", "1"]}}, "use_cudnn_on_gpu": {"b": true}}}, {"name": "PartitionedCall/PartitionedCall/PartitionedCall/tf.nn.convolution_37/convolution", "op": "Conv2D", "input": ["PartitionedCall/PartitionedCall/PartitionedCall/tf.math.multiply_116/Mul", "23122"], "device": "/device:CPU:0", "attr": {"data_format": {"s": "TkhXQw=="}, "dilations": {"list": {"i": ["1", "1", "1", "1"]}}, "explicit_paddings": {"list": {}}, "T": {"type": "DT_FLOAT"}, "strides": {"list": {"i": ["1", "1", "1", "1"]}}, "padding": {"s": "U0FNRQ=="}, "use_cudnn_on_gpu": {"b": true}}}, {"name": "PartitionedCall/PartitionedCall/PartitionedCall/tf.compat.v1.pad_5/Pad", "op": "Pad", "input": ["PartitionedCall/PartitionedCall/PartitionedCall/tf.math.multiply_116/Mul", "23054"], "attr": {"T": {"type": "DT_FLOAT"}, "Tpaddings": {"type": "DT_INT32"}}}, {"name": "PartitionedCall/PartitionedCall/PartitionedCall/tf.math.add_42/Add", "op": "AddV2", "input": ["PartitionedCall/PartitionedCall/PartitionedCall/tf.nn.convolution_36/convolution", "23136"], "attr": {"T": {"type": "DT_FLOAT"}}}, {"name": "PartitionedCall/PartitionedCall/PartitionedCall/tf.math.add_43/Add", "op": "AddV2", "input": ["PartitionedCall/PartitionedCall/PartitionedCall/tf.nn.convolution_37/convolution", "23134"], "attr": {"T": {"type": "DT_FLOAT"}}}, {"name": "PartitionedCall/PartitionedCall/PartitionedCall/tf.nn.convolution_35/convolution", "op": "Conv2D", "input": ["PartitionedCall/PartitionedCall/PartitionedCall/tf.compat.v1.pad_5/Pad", "23056"], "device": "/device:CPU:0", "attr": {"data_format": {"s": "TkhXQw=="}, "use_cudnn_on_gpu": {"b": true}, "dilations": {"list": {"i": ["1", "1", "1", "1"]}}, "padding": {"s": "VkFMSUQ="}, "strides": {"list": {"i": ["1", "2", "2", "1"]}}, "explicit_paddings": {"list": {}}, "T": {"type": "DT_FLOAT"}}}, {"name": "PartitionedCall/PartitionedCall/PartitionedCall/tf.math.sigmoid_36/Sigmoid", "op": "Sigmoid", "input": ["PartitionedCall/PartitionedCall/PartitionedCall/tf.math.add_42/Add"], "attr": {"T": {"type": "DT_FLOAT"}}}, {"name": "PartitionedCall/PartitionedCall/PartitionedCall/tf.math.sigmoid_37/Sigmoid", "op": "Sigmoid", "input": ["PartitionedCall/PartitionedCall/PartitionedCall/tf.math.add_43/Add"], "attr": {"T": {"type": "DT_FLOAT"}}}, {"name": "PartitionedCall/PartitionedCall/PartitionedCall/tf.math.add_41/Add", "op": "AddV2", "input": ["PartitionedCall/PartitionedCall/PartitionedCall/tf.nn.convolution_35/convolution", "23058"], "attr": {"T": {"type": "DT_FLOAT"}}}, {"name": "PartitionedCall/PartitionedCall/PartitionedCall/tf.math.multiply_122/Mul", "op": "Mul", "input": ["PartitionedCall/PartitionedCall/PartitionedCall/tf.math.add_42/Add", "PartitionedCall/PartitionedCall/PartitionedCall/tf.math.sigmoid_36/Sigmoid"], "attr": {"T": {"type": "DT_FLOAT"}}}, {"name": "PartitionedCall/PartitionedCall/PartitionedCall/tf.math.multiply_125/Mul", "op": "Mul", "input": ["PartitionedCall/PartitionedCall/PartitionedCall/tf.math.add_43/Add", "PartitionedCall/PartitionedCall/PartitionedCall/tf.math.sigmoid_37/Sigmoid"], "attr": {"T": {"type": "DT_FLOAT"}}}, {"name": "PartitionedCall/PartitionedCall/PartitionedCall/tf.math.sigmoid_35/Sigmoid", "op": "Sigmoid", "input": ["PartitionedCall/PartitionedCall/PartitionedCall/tf.math.add_41/Add"], "attr": {"T": {"type": "DT_FLOAT"}}}, {"name": "PartitionedCall/PartitionedCall/PartitionedCall/tf.nn.convolution_38/convolution", "op": "Conv2D", "input": ["PartitionedCall/PartitionedCall/PartitionedCall/tf.math.multiply_122/Mul", "23148"], "device": "/device:CPU:0", "attr": {"T": {"type": "DT_FLOAT"}, "use_cudnn_on_gpu": {"b": true}, "explicit_paddings": {"list": {}}, "dilations": {"list": {"i": ["1", "1", "1", "1"]}}, "strides": {"list": {"i": ["1", "1", "1", "1"]}}, "padding": {"s": "U0FNRQ=="}, "data_format": {"s": "TkhXQw=="}}}, {"name": "PartitionedCall/PartitionedCall/PartitionedCall/tf.nn.convolution_39/convolution", "op": "Conv2D", "input": ["PartitionedCall/PartitionedCall/PartitionedCall/tf.math.multiply_125/Mul", "23146"], "device": "/device:CPU:0", "attr": {"padding": {"s": "U0FNRQ=="}, "T": {"type": "DT_FLOAT"}, "explicit_paddings": {"list": {}}, "strides": {"list": {"i": ["1", "1", "1", "1"]}}, "dilations": {"list": {"i": ["1", "1", "1", "1"]}}, "use_cudnn_on_gpu": {"b": true}, "data_format": {"s": "TkhXQw=="}}}, {"name": "PartitionedCall/PartitionedCall/PartitionedCall/tf.math.multiply_119/Mul", "op": "Mul", "input": ["PartitionedCall/PartitionedCall/PartitionedCall/tf.math.add_41/Add", "PartitionedCall/PartitionedCall/PartitionedCall/tf.math.sigmoid_35/Sigmoid"], "attr": {"T": {"type": "DT_FLOAT"}}}, {"name": "PartitionedCall/PartitionedCall/PartitionedCall/tf.math.add_44/Add", "op": "AddV2", "input": ["PartitionedCall/PartitionedCall/PartitionedCall/tf.nn.convolution_38/convolution", "23160"], "attr": {"T": {"type": "DT_FLOAT"}}}, {"name": "PartitionedCall/PartitionedCall/PartitionedCall/tf.math.add_45/Add", "op": "AddV2", "input": ["PartitionedCall/PartitionedCall/PartitionedCall/tf.nn.convolution_39/convolution", "23158"], "attr": {"T": {"type": "DT_FLOAT"}}}, {"name": "PartitionedCall/PartitionedCall/PartitionedCall/tf.concat_9/concat", "op": "ConcatV2", "input": ["PartitionedCall/PartitionedCall/PartitionedCall/tf.math.multiply_119/Mul", "PartitionedCall/PartitionedCall/PartitionedCall/tf.math.multiply_104/Mul", "PartitionedCall/PartitionedCall/PartitionedCall/tf.concat_9/concat/axis"], "attr": {"N": {"i": "2"}, "Tidx": {"type": "DT_INT32"}, "T": {"type": "DT_FLOAT"}}}, {"name": "PartitionedCall/PartitionedCall/PartitionedCall/tf.math.sigmoid_38/Sigmoid", "op": "Sigmoid", "input": ["PartitionedCall/PartitionedCall/PartitionedCall/tf.math.add_44/Add"], "attr": {"T": {"type": "DT_FLOAT"}}}, {"name": "PartitionedCall/PartitionedCall/PartitionedCall/tf.math.sigmoid_39/Sigmoid", "op": "Sigmoid", "input": ["PartitionedCall/PartitionedCall/PartitionedCall/tf.math.add_45/Add"], "attr": {"T": {"type": "DT_FLOAT"}}}, {"name": "PartitionedCall/PartitionedCall/PartitionedCall/tf.nn.convolution_40/convolution", "op": "Conv2D", "input": ["PartitionedCall/PartitionedCall/PartitionedCall/tf.concat_9/concat", "23060"], "device": "/device:CPU:0", "attr": {"T": {"type": "DT_FLOAT"}, "padding": {"s": "U0FNRQ=="}, "use_cudnn_on_gpu": {"b": true}, "dilations": {"list": {"i": ["1", "1", "1", "1"]}}, "strides": {"list": {"i": ["1", "1", "1", "1"]}}, "data_format": {"s": "TkhXQw=="}, "explicit_paddings": {"list": {}}}}, {"name": "PartitionedCall/PartitionedCall/PartitionedCall/tf.math.multiply_128/Mul", "op": "Mul", "input": ["PartitionedCall/PartitionedCall/PartitionedCall/tf.math.add_44/Add", "PartitionedCall/PartitionedCall/PartitionedCall/tf.math.sigmoid_38/Sigmoid"], "attr": {"T": {"type": "DT_FLOAT"}}}, {"name": "PartitionedCall/PartitionedCall/PartitionedCall/tf.math.multiply_131/Mul", "op": "Mul", "input": ["PartitionedCall/PartitionedCall/PartitionedCall/tf.math.add_45/Add", "PartitionedCall/PartitionedCall/PartitionedCall/tf.math.sigmoid_39/Sigmoid"], "attr": {"T": {"type": "DT_FLOAT"}}}, {"name": "PartitionedCall/PartitionedCall/PartitionedCall/tf.math.add_46/Add", "op": "AddV2", "input": ["PartitionedCall/PartitionedCall/PartitionedCall/tf.nn.convolution_40/convolution", "23062"], "attr": {"T": {"type": "DT_FLOAT"}}}, {"name": "PartitionedCall/PartitionedCall/PartitionedCall/tf.nn.convolution_41/convolution", "op": "Conv2D", "input": ["PartitionedCall/PartitionedCall/PartitionedCall/tf.math.multiply_128/Mul", "23172"], "device": "/device:CPU:0", "attr": {"strides": {"list": {"i": ["1", "1", "1", "1"]}}, "padding": {"s": "U0FNRQ=="}, "dilations": {"list": {"i": ["1", "1", "1", "1"]}}, "data_format": {"s": "TkhXQw=="}, "T": {"type": "DT_FLOAT"}, "use_cudnn_on_gpu": {"b": true}, "explicit_paddings": {"list": {}}}}, {"name": "PartitionedCall/PartitionedCall/PartitionedCall/tf.nn.convolution_42/convolution", "op": "Conv2D", "input": ["PartitionedCall/PartitionedCall/PartitionedCall/tf.math.multiply_131/Mul", "23170"], "device": "/device:CPU:0", "attr": {"T": {"type": "DT_FLOAT"}, "data_format": {"s": "TkhXQw=="}, "dilations": {"list": {"i": ["1", "1", "1", "1"]}}, "explicit_paddings": {"list": {}}, "use_cudnn_on_gpu": {"b": true}, "strides": {"list": {"i": ["1", "1", "1", "1"]}}, "padding": {"s": "U0FNRQ=="}}}, {"name": "PartitionedCall/PartitionedCall/PartitionedCall/tf.math.sigmoid_40/Sigmoid", "op": "Sigmoid", "input": ["PartitionedCall/PartitionedCall/PartitionedCall/tf.math.add_46/Add"], "attr": {"T": {"type": "DT_FLOAT"}}}, {"name": "PartitionedCall/PartitionedCall/PartitionedCall/tf.math.add_47/Add", "op": "AddV2", "input": ["PartitionedCall/PartitionedCall/PartitionedCall/tf.nn.convolution_41/convolution", "23182"], "attr": {"T": {"type": "DT_FLOAT"}}}, {"name": "PartitionedCall/PartitionedCall/PartitionedCall/tf.math.add_48/Add", "op": "AddV2", "input": ["PartitionedCall/PartitionedCall/PartitionedCall/tf.nn.convolution_42/convolution", "23184"], "attr": {"T": {"type": "DT_FLOAT"}}}, {"name": "PartitionedCall/PartitionedCall/PartitionedCall/tf.math.multiply_134/Mul", "op": "Mul", "input": ["PartitionedCall/PartitionedCall/PartitionedCall/tf.math.add_46/Add", "PartitionedCall/PartitionedCall/PartitionedCall/tf.math.sigmoid_40/Sigmoid"], "attr": {"T": {"type": "DT_FLOAT"}}}, {"name": "PartitionedCall/PartitionedCall/PartitionedCall/tf.concat_10/concat", "op": "ConcatV2", "input": ["PartitionedCall/PartitionedCall/PartitionedCall/tf.math.add_47/Add", "PartitionedCall/PartitionedCall/PartitionedCall/tf.math.add_48/Add", "PartitionedCall/PartitionedCall/PartitionedCall/tf.concat_10/concat/axis"], "attr": {"Tidx": {"type": "DT_INT32"}, "N": {"i": "2"}, "T": {"type": "DT_FLOAT"}}}, {"name": "PartitionedCall/PartitionedCall/PartitionedCall/tf.strided_slice_12/StridedSlice", "op": "StridedSlice", "input": ["PartitionedCall/PartitionedCall/PartitionedCall/tf.math.multiply_134/Mul", "23076", "23078", "PartitionedCall/PartitionedCall/PartitionedCall/tf.strided_slice_12/ones_like"], "attr": {"Index": {"type": "DT_INT64"}, "ellipsis_mask": {"i": "0"}, "T": {"type": "DT_FLOAT"}, "new_axis_mask": {"i": "0"}, "end_mask": {"i": "7"}, "begin_mask": {"i": "15"}, "shrink_axis_mask": {"i": "0"}}}, {"name": "PartitionedCall/PartitionedCall/PartitionedCall/tf.strided_slice_13/StridedSlice", "op": "StridedSlice", "input": ["PartitionedCall/PartitionedCall/PartitionedCall/tf.math.multiply_134/Mul", "23064", "23066", "PartitionedCall/PartitionedCall/PartitionedCall/tf.strided_slice_13/ones_like"], "attr": {"shrink_axis_mask": {"i": "0"}, "T": {"type": "DT_FLOAT"}, "new_axis_mask": {"i": "0"}, "begin_mask": {"i": "7"}, "Index": {"type": "DT_INT64"}, "ellipsis_mask": {"i": "0"}, "end_mask": {"i": "7"}}}, {"name": "PartitionedCall/PartitionedCall/PartitionedCall/tf.compat.v1.transpose/transpose", "op": "Transpose", "input": ["PartitionedCall/PartitionedCall/PartitionedCall/tf.concat_10/concat", "PartitionedCall/PartitionedCall/PartitionedCall/tf.compat.v1.transpose/transpose/perm"], "attr": {"T": {"type": "DT_FLOAT"}, "Tperm": {"type": "DT_INT32"}}}, {"name": "PartitionedCall/PartitionedCall/PartitionedCall/tf.nn.convolution_43/convolution", "op": "Conv2D", "input": ["PartitionedCall/PartitionedCall/PartitionedCall/tf.strided_slice_13/StridedSlice", "23068"], "device": "/device:CPU:0", "attr": {"explicit_paddings": {"list": {}}, "dilations": {"list": {"i": ["1", "1", "1", "1"]}}, "strides": {"list": {"i": ["1", "1", "1", "1"]}}, "padding": {"s": "U0FNRQ=="}, "data_format": {"s": "TkhXQw=="}, "T": {"type": "DT_FLOAT"}, "use_cudnn_on_gpu": {"b": true}}}, {"name": "PartitionedCall/PartitionedCall/PartitionedCall/tf.reshape/Reshape", "op": "Reshape", "input": ["PartitionedCall/PartitionedCall/PartitionedCall/tf.compat.v1.transpose/transpose", "PartitionedCall/PartitionedCall/PartitionedCall/tf.reshape/Reshape/shape"], "attr": {"T": {"type": "DT_FLOAT"}, "Tshape": {"type": "DT_INT32"}}}, {"name": "PartitionedCall/PartitionedCall/PartitionedCall/tf.math.add_49/Add", "op": "AddV2", "input": ["PartitionedCall/PartitionedCall/PartitionedCall/tf.nn.convolution_43/convolution", "23070"], "attr": {"T": {"type": "DT_FLOAT"}}}, {"name": "PartitionedCall/PartitionedCall/PartitionedCall/tf.math.sigmoid_41/Sigmoid", "op": "Sigmoid", "input": ["PartitionedCall/PartitionedCall/PartitionedCall/tf.math.add_49/Add"], "attr": {"T": {"type": "DT_FLOAT"}}}, {"name": "PartitionedCall/PartitionedCall/PartitionedCall/tf.math.multiply_137/Mul", "op": "Mul", "input": ["PartitionedCall/PartitionedCall/PartitionedCall/tf.math.add_49/Add", "PartitionedCall/PartitionedCall/PartitionedCall/tf.math.sigmoid_41/Sigmoid"], "attr": {"T": {"type": "DT_FLOAT"}}}, {"name": "PartitionedCall/PartitionedCall/PartitionedCall/tf.nn.convolution_44/convolution", "op": "Conv2D", "input": ["PartitionedCall/PartitionedCall/PartitionedCall/tf.math.multiply_137/Mul", "23072"], "device": "/device:CPU:0", "attr": {"strides": {"list": {"i": ["1", "1", "1", "1"]}}, "T": {"type": "DT_FLOAT"}, "padding": {"s": "U0FNRQ=="}, "use_cudnn_on_gpu": {"b": true}, "data_format": {"s": "TkhXQw=="}, "dilations": {"list": {"i": ["1", "1", "1", "1"]}}, "explicit_paddings": {"list": {}}}}, {"name": "PartitionedCall/PartitionedCall/PartitionedCall/tf.math.add_50/Add", "op": "AddV2", "input": ["PartitionedCall/PartitionedCall/PartitionedCall/tf.nn.convolution_44/convolution", "23074"], "attr": {"T": {"type": "DT_FLOAT"}}}, {"name": "PartitionedCall/PartitionedCall/PartitionedCall/tf.math.sigmoid_42/Sigmoid", "op": "Sigmoid", "input": ["PartitionedCall/PartitionedCall/PartitionedCall/tf.math.add_50/Add"], "attr": {"T": {"type": "DT_FLOAT"}}}, {"name": "PartitionedCall/PartitionedCall/PartitionedCall/tf.math.multiply_140/Mul", "op": "Mul", "input": ["PartitionedCall/PartitionedCall/PartitionedCall/tf.math.add_50/Add", "PartitionedCall/PartitionedCall/PartitionedCall/tf.math.sigmoid_42/Sigmoid"], "attr": {"T": {"type": "DT_FLOAT"}}}, {"name": "PartitionedCall/PartitionedCall/PartitionedCall/tf.concat_11/concat", "op": "ConcatV2", "input": ["PartitionedCall/PartitionedCall/PartitionedCall/tf.strided_slice_12/StridedSlice", "PartitionedCall/PartitionedCall/PartitionedCall/tf.strided_slice_13/StridedSlice", "PartitionedCall/PartitionedCall/PartitionedCall/tf.math.multiply_140/Mul", "PartitionedCall/PartitionedCall/PartitionedCall/tf.concat_11/concat/axis"], "attr": {"Tidx": {"type": "DT_INT32"}, "T": {"type": "DT_FLOAT"}, "N": {"i": "3"}}}, {"name": "PartitionedCall/PartitionedCall/PartitionedCall/tf.nn.convolution_45/convolution", "op": "Conv2D", "input": ["PartitionedCall/PartitionedCall/PartitionedCall/tf.concat_11/concat", "23080"], "device": "/device:CPU:0", "attr": {"use_cudnn_on_gpu": {"b": true}, "explicit_paddings": {"list": {}}, "padding": {"s": "U0FNRQ=="}, "strides": {"list": {"i": ["1", "1", "1", "1"]}}, "T": {"type": "DT_FLOAT"}, "dilations": {"list": {"i": ["1", "1", "1", "1"]}}, "data_format": {"s": "TkhXQw=="}}}, {"name": "PartitionedCall/PartitionedCall/PartitionedCall/tf.math.add_51/Add", "op": "AddV2", "input": ["PartitionedCall/PartitionedCall/PartitionedCall/tf.nn.convolution_45/convolution", "23082"], "attr": {"T": {"type": "DT_FLOAT"}}}, {"name": "PartitionedCall/PartitionedCall/PartitionedCall/tf.math.sigmoid_43/Sigmoid", "op": "Sigmoid", "input": ["PartitionedCall/PartitionedCall/PartitionedCall/tf.math.add_51/Add"], "attr": {"T": {"type": "DT_FLOAT"}}}, {"name": "PartitionedCall/PartitionedCall/PartitionedCall/tf.math.multiply_143/Mul", "op": "Mul", "input": ["PartitionedCall/PartitionedCall/PartitionedCall/tf.math.add_51/Add", "PartitionedCall/PartitionedCall/PartitionedCall/tf.math.sigmoid_43/Sigmoid"], "attr": {"T": {"type": "DT_FLOAT"}}}, {"name": "PartitionedCall/PartitionedCall/PartitionedCall/tf.nn.convolution_47/convolution", "op": "Conv2D", "input": ["PartitionedCall/PartitionedCall/PartitionedCall/tf.math.multiply_143/Mul", "23120"], "device": "/device:CPU:0", "attr": {"use_cudnn_on_gpu": {"b": true}, "padding": {"s": "U0FNRQ=="}, "T": {"type": "DT_FLOAT"}, "dilations": {"list": {"i": ["1", "1", "1", "1"]}}, "explicit_paddings": {"list": {}}, "strides": {"list": {"i": ["1", "1", "1", "1"]}}, "data_format": {"s": "TkhXQw=="}}}, {"name": "PartitionedCall/PartitionedCall/PartitionedCall/tf.nn.convolution_48/convolution", "op": "Conv2D", "input": ["PartitionedCall/PartitionedCall/PartitionedCall/tf.math.multiply_143/Mul", "23118"], "device": "/device:CPU:0", "attr": {"T": {"type": "DT_FLOAT"}, "explicit_paddings": {"list": {}}, "use_cudnn_on_gpu": {"b": true}, "strides": {"list": {"i": ["1", "1", "1", "1"]}}, "padding": {"s": "U0FNRQ=="}, "data_format": {"s": "TkhXQw=="}, "dilations": {"list": {"i": ["1", "1", "1", "1"]}}}}, {"name": "PartitionedCall/PartitionedCall/PartitionedCall/tf.compat.v1.pad_6/Pad", "op": "Pad", "input": ["PartitionedCall/PartitionedCall/PartitionedCall/tf.math.multiply_143/Mul", "23084"], "attr": {"T": {"type": "DT_FLOAT"}, "Tpaddings": {"type": "DT_INT32"}}}, {"name": "PartitionedCall/PartitionedCall/PartitionedCall/tf.math.add_53/Add", "op": "AddV2", "input": ["PartitionedCall/PartitionedCall/PartitionedCall/tf.nn.convolution_47/convolution", "23132"], "attr": {"T": {"type": "DT_FLOAT"}}}, {"name": "PartitionedCall/PartitionedCall/PartitionedCall/tf.math.add_54/Add", "op": "AddV2", "input": ["PartitionedCall/PartitionedCall/PartitionedCall/tf.nn.convolution_48/convolution", "23130"], "attr": {"T": {"type": "DT_FLOAT"}}}, {"name": "PartitionedCall/PartitionedCall/PartitionedCall/tf.nn.convolution_46/convolution", "op": "Conv2D", "input": ["PartitionedCall/PartitionedCall/PartitionedCall/tf.compat.v1.pad_6/Pad", "23086"], "device": "/device:CPU:0", "attr": {"data_format": {"s": "TkhXQw=="}, "dilations": {"list": {"i": ["1", "1", "1", "1"]}}, "strides": {"list": {"i": ["1", "2", "2", "1"]}}, "padding": {"s": "VkFMSUQ="}, "T": {"type": "DT_FLOAT"}, "explicit_paddings": {"list": {}}, "use_cudnn_on_gpu": {"b": true}}}, {"name": "PartitionedCall/PartitionedCall/PartitionedCall/tf.math.sigmoid_45/Sigmoid", "op": "Sigmoid", "input": ["PartitionedCall/PartitionedCall/PartitionedCall/tf.math.add_53/Add"], "attr": {"T": {"type": "DT_FLOAT"}}}, {"name": "PartitionedCall/PartitionedCall/PartitionedCall/tf.math.sigmoid_46/Sigmoid", "op": "Sigmoid", "input": ["PartitionedCall/PartitionedCall/PartitionedCall/tf.math.add_54/Add"], "attr": {"T": {"type": "DT_FLOAT"}}}, {"name": "PartitionedCall/PartitionedCall/PartitionedCall/tf.math.add_52/Add", "op": "AddV2", "input": ["PartitionedCall/PartitionedCall/PartitionedCall/tf.nn.convolution_46/convolution", "23088"], "attr": {"T": {"type": "DT_FLOAT"}}}, {"name": "PartitionedCall/PartitionedCall/PartitionedCall/tf.math.multiply_149/Mul", "op": "Mul", "input": ["PartitionedCall/PartitionedCall/PartitionedCall/tf.math.add_53/Add", "PartitionedCall/PartitionedCall/PartitionedCall/tf.math.sigmoid_45/Sigmoid"], "attr": {"T": {"type": "DT_FLOAT"}}}, {"name": "PartitionedCall/PartitionedCall/PartitionedCall/tf.math.multiply_152/Mul", "op": "Mul", "input": ["PartitionedCall/PartitionedCall/PartitionedCall/tf.math.add_54/Add", "PartitionedCall/PartitionedCall/PartitionedCall/tf.math.sigmoid_46/Sigmoid"], "attr": {"T": {"type": "DT_FLOAT"}}}, {"name": "PartitionedCall/PartitionedCall/PartitionedCall/tf.math.sigmoid_44/Sigmoid", "op": "Sigmoid", "input": ["PartitionedCall/PartitionedCall/PartitionedCall/tf.math.add_52/Add"], "attr": {"T": {"type": "DT_FLOAT"}}}, {"name": "PartitionedCall/PartitionedCall/PartitionedCall/tf.nn.convolution_49/convolution", "op": "Conv2D", "input": ["PartitionedCall/PartitionedCall/PartitionedCall/tf.math.multiply_149/Mul", "23144"], "device": "/device:CPU:0", "attr": {"dilations": {"list": {"i": ["1", "1", "1", "1"]}}, "explicit_paddings": {"list": {}}, "strides": {"list": {"i": ["1", "1", "1", "1"]}}, "T": {"type": "DT_FLOAT"}, "data_format": {"s": "TkhXQw=="}, "use_cudnn_on_gpu": {"b": true}, "padding": {"s": "U0FNRQ=="}}}, {"name": "PartitionedCall/PartitionedCall/PartitionedCall/tf.nn.convolution_50/convolution", "op": "Conv2D", "input": ["PartitionedCall/PartitionedCall/PartitionedCall/tf.math.multiply_152/Mul", "23142"], "device": "/device:CPU:0", "attr": {"explicit_paddings": {"list": {}}, "padding": {"s": "U0FNRQ=="}, "dilations": {"list": {"i": ["1", "1", "1", "1"]}}, "T": {"type": "DT_FLOAT"}, "data_format": {"s": "TkhXQw=="}, "strides": {"list": {"i": ["1", "1", "1", "1"]}}, "use_cudnn_on_gpu": {"b": true}}}, {"name": "PartitionedCall/PartitionedCall/PartitionedCall/tf.math.multiply_146/Mul", "op": "Mul", "input": ["PartitionedCall/PartitionedCall/PartitionedCall/tf.math.add_52/Add", "PartitionedCall/PartitionedCall/PartitionedCall/tf.math.sigmoid_44/Sigmoid"], "attr": {"T": {"type": "DT_FLOAT"}}}, {"name": "PartitionedCall/PartitionedCall/PartitionedCall/tf.math.add_55/Add", "op": "AddV2", "input": ["PartitionedCall/PartitionedCall/PartitionedCall/tf.nn.convolution_49/convolution", "23156"], "attr": {"T": {"type": "DT_FLOAT"}}}, {"name": "PartitionedCall/PartitionedCall/PartitionedCall/tf.math.add_56/Add", "op": "AddV2", "input": ["PartitionedCall/PartitionedCall/PartitionedCall/tf.nn.convolution_50/convolution", "23154"], "attr": {"T": {"type": "DT_FLOAT"}}}, {"name": "PartitionedCall/PartitionedCall/PartitionedCall/tf.concat_12/concat", "op": "ConcatV2", "input": ["PartitionedCall/PartitionedCall/PartitionedCall/tf.math.multiply_146/Mul", "PartitionedCall/PartitionedCall/PartitionedCall/tf.math.multiply_92/Mul", "PartitionedCall/PartitionedCall/PartitionedCall/tf.concat_12/concat/axis"], "attr": {"T": {"type": "DT_FLOAT"}, "N": {"i": "2"}, "Tidx": {"type": "DT_INT32"}}}, {"name": "PartitionedCall/PartitionedCall/PartitionedCall/tf.math.sigmoid_47/Sigmoid", "op": "Sigmoid", "input": ["PartitionedCall/PartitionedCall/PartitionedCall/tf.math.add_55/Add"], "attr": {"T": {"type": "DT_FLOAT"}}}, {"name": "PartitionedCall/PartitionedCall/PartitionedCall/tf.math.sigmoid_48/Sigmoid", "op": "Sigmoid", "input": ["PartitionedCall/PartitionedCall/PartitionedCall/tf.math.add_56/Add"], "attr": {"T": {"type": "DT_FLOAT"}}}, {"name": "PartitionedCall/PartitionedCall/PartitionedCall/tf.nn.convolution_51/convolution", "op": "Conv2D", "input": ["PartitionedCall/PartitionedCall/PartitionedCall/tf.concat_12/concat", "23090"], "device": "/device:CPU:0", "attr": {"use_cudnn_on_gpu": {"b": true}, "T": {"type": "DT_FLOAT"}, "data_format": {"s": "TkhXQw=="}, "explicit_paddings": {"list": {}}, "padding": {"s": "U0FNRQ=="}, "strides": {"list": {"i": ["1", "1", "1", "1"]}}, "dilations": {"list": {"i": ["1", "1", "1", "1"]}}}}, {"name": "PartitionedCall/PartitionedCall/PartitionedCall/tf.math.multiply_155/Mul", "op": "Mul", "input": ["PartitionedCall/PartitionedCall/PartitionedCall/tf.math.add_55/Add", "PartitionedCall/PartitionedCall/PartitionedCall/tf.math.sigmoid_47/Sigmoid"], "attr": {"T": {"type": "DT_FLOAT"}}}, {"name": "PartitionedCall/PartitionedCall/PartitionedCall/tf.math.multiply_158/Mul", "op": "Mul", "input": ["PartitionedCall/PartitionedCall/PartitionedCall/tf.math.add_56/Add", "PartitionedCall/PartitionedCall/PartitionedCall/tf.math.sigmoid_48/Sigmoid"], "attr": {"T": {"type": "DT_FLOAT"}}}, {"name": "PartitionedCall/PartitionedCall/PartitionedCall/tf.math.add_57/Add", "op": "AddV2", "input": ["PartitionedCall/PartitionedCall/PartitionedCall/tf.nn.convolution_51/convolution", "23092"], "attr": {"T": {"type": "DT_FLOAT"}}}, {"name": "PartitionedCall/PartitionedCall/PartitionedCall/tf.nn.convolution_52/convolution", "op": "Conv2D", "input": ["PartitionedCall/PartitionedCall/PartitionedCall/tf.math.multiply_155/Mul", "23168"], "device": "/device:CPU:0", "attr": {"data_format": {"s": "TkhXQw=="}, "use_cudnn_on_gpu": {"b": true}, "dilations": {"list": {"i": ["1", "1", "1", "1"]}}, "explicit_paddings": {"list": {}}, "strides": {"list": {"i": ["1", "1", "1", "1"]}}, "padding": {"s": "U0FNRQ=="}, "T": {"type": "DT_FLOAT"}}}, {"name": "PartitionedCall/PartitionedCall/PartitionedCall/tf.nn.convolution_53/convolution", "op": "Conv2D", "input": ["PartitionedCall/PartitionedCall/PartitionedCall/tf.math.multiply_158/Mul", "23166"], "device": "/device:CPU:0", "attr": {"padding": {"s": "U0FNRQ=="}, "data_format": {"s": "TkhXQw=="}, "strides": {"list": {"i": ["1", "1", "1", "1"]}}, "use_cudnn_on_gpu": {"b": true}, "dilations": {"list": {"i": ["1", "1", "1", "1"]}}, "explicit_paddings": {"list": {}}, "T": {"type": "DT_FLOAT"}}}, {"name": "PartitionedCall/PartitionedCall/PartitionedCall/tf.math.sigmoid_49/Sigmoid", "op": "Sigmoid", "input": ["PartitionedCall/PartitionedCall/PartitionedCall/tf.math.add_57/Add"], "attr": {"T": {"type": "DT_FLOAT"}}}, {"name": "PartitionedCall/PartitionedCall/PartitionedCall/tf.math.add_58/Add", "op": "AddV2", "input": ["PartitionedCall/PartitionedCall/PartitionedCall/tf.nn.convolution_52/convolution", "23178"], "attr": {"T": {"type": "DT_FLOAT"}}}, {"name": "PartitionedCall/PartitionedCall/PartitionedCall/tf.math.add_59/Add", "op": "AddV2", "input": ["PartitionedCall/PartitionedCall/PartitionedCall/tf.nn.convolution_53/convolution", "23180"], "attr": {"T": {"type": "DT_FLOAT"}}}, {"name": "PartitionedCall/PartitionedCall/PartitionedCall/tf.math.multiply_161/Mul", "op": "Mul", "input": ["PartitionedCall/PartitionedCall/PartitionedCall/tf.math.add_57/Add", "PartitionedCall/PartitionedCall/PartitionedCall/tf.math.sigmoid_49/Sigmoid"], "attr": {"T": {"type": "DT_FLOAT"}}}, {"name": "PartitionedCall/PartitionedCall/PartitionedCall/tf.concat_13/concat", "op": "ConcatV2", "input": ["PartitionedCall/PartitionedCall/PartitionedCall/tf.math.add_58/Add", "PartitionedCall/PartitionedCall/PartitionedCall/tf.math.add_59/Add", "PartitionedCall/PartitionedCall/PartitionedCall/tf.concat_13/concat/axis"], "attr": {"N": {"i": "2"}, "Tidx": {"type": "DT_INT32"}, "T": {"type": "DT_FLOAT"}}}, {"name": "PartitionedCall/PartitionedCall/PartitionedCall/tf.strided_slice_14/StridedSlice", "op": "StridedSlice", "input": ["PartitionedCall/PartitionedCall/PartitionedCall/tf.math.multiply_161/Mul", "23106", "23108", "PartitionedCall/PartitionedCall/PartitionedCall/tf.strided_slice_14/ones_like"], "attr": {"Index": {"type": "DT_INT64"}, "ellipsis_mask": {"i": "0"}, "new_axis_mask": {"i": "0"}, "end_mask": {"i": "7"}, "begin_mask": {"i": "15"}, "shrink_axis_mask": {"i": "0"}, "T": {"type": "DT_FLOAT"}}}, {"name": "PartitionedCall/PartitionedCall/PartitionedCall/tf.strided_slice_15/StridedSlice", "op": "StridedSlice", "input": ["PartitionedCall/PartitionedCall/PartitionedCall/tf.math.multiply_161/Mul", "23094", "23096", "PartitionedCall/PartitionedCall/PartitionedCall/tf.strided_slice_15/ones_like"], "attr": {"shrink_axis_mask": {"i": "0"}, "Index": {"type": "DT_INT64"}, "end_mask": {"i": "7"}, "T": {"type": "DT_FLOAT"}, "new_axis_mask": {"i": "0"}, "begin_mask": {"i": "7"}, "ellipsis_mask": {"i": "0"}}}, {"name": "PartitionedCall/PartitionedCall/PartitionedCall/tf.compat.v1.transpose_1/transpose", "op": "Transpose", "input": ["PartitionedCall/PartitionedCall/PartitionedCall/tf.concat_13/concat", "PartitionedCall/PartitionedCall/PartitionedCall/tf.compat.v1.transpose_1/transpose/perm"], "attr": {"T": {"type": "DT_FLOAT"}, "Tperm": {"type": "DT_INT32"}}}, {"name": "PartitionedCall/PartitionedCall/PartitionedCall/tf.nn.convolution_54/convolution", "op": "Conv2D", "input": ["PartitionedCall/PartitionedCall/PartitionedCall/tf.strided_slice_15/StridedSlice", "23098"], "device": "/device:CPU:0", "attr": {"T": {"type": "DT_FLOAT"}, "use_cudnn_on_gpu": {"b": true}, "dilations": {"list": {"i": ["1", "1", "1", "1"]}}, "data_format": {"s": "TkhXQw=="}, "explicit_paddings": {"list": {}}, "padding": {"s": "U0FNRQ=="}, "strides": {"list": {"i": ["1", "1", "1", "1"]}}}}, {"name": "PartitionedCall/PartitionedCall/PartitionedCall/tf.reshape_1/Reshape", "op": "Reshape", "input": ["PartitionedCall/PartitionedCall/PartitionedCall/tf.compat.v1.transpose_1/transpose", "PartitionedCall/PartitionedCall/PartitionedCall/tf.reshape_1/Reshape/shape"], "attr": {"Tshape": {"type": "DT_INT32"}, "T": {"type": "DT_FLOAT"}}}, {"name": "PartitionedCall/PartitionedCall/PartitionedCall/tf.math.add_60/Add", "op": "AddV2", "input": ["PartitionedCall/PartitionedCall/PartitionedCall/tf.nn.convolution_54/convolution", "23100"], "attr": {"T": {"type": "DT_FLOAT"}}}, {"name": "PartitionedCall/PartitionedCall/PartitionedCall/tf.math.sigmoid_50/Sigmoid", "op": "Sigmoid", "input": ["PartitionedCall/PartitionedCall/PartitionedCall/tf.math.add_60/Add"], "attr": {"T": {"type": "DT_FLOAT"}}}, {"name": "PartitionedCall/PartitionedCall/PartitionedCall/tf.math.multiply_164/Mul", "op": "Mul", "input": ["PartitionedCall/PartitionedCall/PartitionedCall/tf.math.add_60/Add", "PartitionedCall/PartitionedCall/PartitionedCall/tf.math.sigmoid_50/Sigmoid"], "attr": {"T": {"type": "DT_FLOAT"}}}, {"name": "PartitionedCall/PartitionedCall/PartitionedCall/tf.nn.convolution_55/convolution", "op": "Conv2D", "input": ["PartitionedCall/PartitionedCall/PartitionedCall/tf.math.multiply_164/Mul", "23102"], "device": "/device:CPU:0", "attr": {"explicit_paddings": {"list": {}}, "data_format": {"s": "TkhXQw=="}, "dilations": {"list": {"i": ["1", "1", "1", "1"]}}, "use_cudnn_on_gpu": {"b": true}, "T": {"type": "DT_FLOAT"}, "padding": {"s": "U0FNRQ=="}, "strides": {"list": {"i": ["1", "1", "1", "1"]}}}}, {"name": "PartitionedCall/PartitionedCall/PartitionedCall/tf.math.add_61/Add", "op": "AddV2", "input": ["PartitionedCall/PartitionedCall/PartitionedCall/tf.nn.convolution_55/convolution", "23104"], "attr": {"T": {"type": "DT_FLOAT"}}}, {"name": "PartitionedCall/PartitionedCall/PartitionedCall/tf.math.sigmoid_51/Sigmoid", "op": "Sigmoid", "input": ["PartitionedCall/PartitionedCall/PartitionedCall/tf.math.add_61/Add"], "attr": {"T": {"type": "DT_FLOAT"}}}, {"name": "PartitionedCall/PartitionedCall/PartitionedCall/tf.math.multiply_167/Mul", "op": "Mul", "input": ["PartitionedCall/PartitionedCall/PartitionedCall/tf.math.add_61/Add", "PartitionedCall/PartitionedCall/PartitionedCall/tf.math.sigmoid_51/Sigmoid"], "attr": {"T": {"type": "DT_FLOAT"}}}, {"name": "PartitionedCall/PartitionedCall/PartitionedCall/tf.concat_14/concat", "op": "ConcatV2", "input": ["PartitionedCall/PartitionedCall/PartitionedCall/tf.strided_slice_14/StridedSlice", "PartitionedCall/PartitionedCall/PartitionedCall/tf.strided_slice_15/StridedSlice", "PartitionedCall/PartitionedCall/PartitionedCall/tf.math.multiply_167/Mul", "PartitionedCall/PartitionedCall/PartitionedCall/tf.concat_14/concat/axis"], "attr": {"N": {"i": "3"}, "T": {"type": "DT_FLOAT"}, "Tidx": {"type": "DT_INT32"}}}, {"name": "PartitionedCall/PartitionedCall/PartitionedCall/tf.nn.convolution_56/convolution", "op": "Conv2D", "input": ["PartitionedCall/PartitionedCall/PartitionedCall/tf.concat_14/concat", "23110"], "device": "/device:CPU:0", "attr": {"T": {"type": "DT_FLOAT"}, "strides": {"list": {"i": ["1", "1", "1", "1"]}}, "explicit_paddings": {"list": {}}, "use_cudnn_on_gpu": {"b": true}, "data_format": {"s": "TkhXQw=="}, "padding": {"s": "U0FNRQ=="}, "dilations": {"list": {"i": ["1", "1", "1", "1"]}}}}, {"name": "PartitionedCall/PartitionedCall/PartitionedCall/tf.math.add_62/Add", "op": "AddV2", "input": ["PartitionedCall/PartitionedCall/PartitionedCall/tf.nn.convolution_56/convolution", "23112"], "attr": {"T": {"type": "DT_FLOAT"}}}, {"name": "PartitionedCall/PartitionedCall/PartitionedCall/tf.math.sigmoid_52/Sigmoid", "op": "Sigmoid", "input": ["PartitionedCall/PartitionedCall/PartitionedCall/tf.math.add_62/Add"], "attr": {"T": {"type": "DT_FLOAT"}}}, {"name": "PartitionedCall/PartitionedCall/PartitionedCall/tf.math.multiply_170/Mul", "op": "Mul", "input": ["PartitionedCall/PartitionedCall/PartitionedCall/tf.math.add_62/Add", "PartitionedCall/PartitionedCall/PartitionedCall/tf.math.sigmoid_52/Sigmoid"], "attr": {"T": {"type": "DT_FLOAT"}}}, {"name": "PartitionedCall/PartitionedCall/PartitionedCall/tf.nn.convolution_57/convolution", "op": "Conv2D", "input": ["PartitionedCall/PartitionedCall/PartitionedCall/tf.math.multiply_170/Mul", "23116"], "device": "/device:CPU:0", "attr": {"padding": {"s": "U0FNRQ=="}, "data_format": {"s": "TkhXQw=="}, "explicit_paddings": {"list": {}}, "T": {"type": "DT_FLOAT"}, "dilations": {"list": {"i": ["1", "1", "1", "1"]}}, "use_cudnn_on_gpu": {"b": true}, "strides": {"list": {"i": ["1", "1", "1", "1"]}}}}, {"name": "PartitionedCall/PartitionedCall/PartitionedCall/tf.nn.convolution_58/convolution", "op": "Conv2D", "input": ["PartitionedCall/PartitionedCall/PartitionedCall/tf.math.multiply_170/Mul", "23114"], "device": "/device:CPU:0", "attr": {"explicit_paddings": {"list": {}}, "data_format": {"s": "TkhXQw=="}, "T": {"type": "DT_FLOAT"}, "dilations": {"list": {"i": ["1", "1", "1", "1"]}}, "padding": {"s": "U0FNRQ=="}, "strides": {"list": {"i": ["1", "1", "1", "1"]}}, "use_cudnn_on_gpu": {"b": true}}}, {"name": "PartitionedCall/PartitionedCall/PartitionedCall/tf.math.add_63/Add", "op": "AddV2", "input": ["PartitionedCall/PartitionedCall/PartitionedCall/tf.nn.convolution_57/convolution", "23128"], "attr": {"T": {"type": "DT_FLOAT"}}}, {"name": "PartitionedCall/PartitionedCall/PartitionedCall/tf.math.add_64/Add", "op": "AddV2", "input": ["PartitionedCall/PartitionedCall/PartitionedCall/tf.nn.convolution_58/convolution", "23126"], "attr": {"T": {"type": "DT_FLOAT"}}}, {"name": "PartitionedCall/PartitionedCall/PartitionedCall/tf.math.sigmoid_53/Sigmoid", "op": "Sigmoid", "input": ["PartitionedCall/PartitionedCall/PartitionedCall/tf.math.add_63/Add"], "attr": {"T": {"type": "DT_FLOAT"}}}, {"name": "PartitionedCall/PartitionedCall/PartitionedCall/tf.math.sigmoid_54/Sigmoid", "op": "Sigmoid", "input": ["PartitionedCall/PartitionedCall/PartitionedCall/tf.math.add_64/Add"], "attr": {"T": {"type": "DT_FLOAT"}}}, {"name": "PartitionedCall/PartitionedCall/PartitionedCall/tf.math.multiply_173/Mul", "op": "Mul", "input": ["PartitionedCall/PartitionedCall/PartitionedCall/tf.math.add_63/Add", "PartitionedCall/PartitionedCall/PartitionedCall/tf.math.sigmoid_53/Sigmoid"], "attr": {"T": {"type": "DT_FLOAT"}}}, {"name": "PartitionedCall/PartitionedCall/PartitionedCall/tf.math.multiply_176/Mul", "op": "Mul", "input": ["PartitionedCall/PartitionedCall/PartitionedCall/tf.math.add_64/Add", "PartitionedCall/PartitionedCall/PartitionedCall/tf.math.sigmoid_54/Sigmoid"], "attr": {"T": {"type": "DT_FLOAT"}}}, {"name": "PartitionedCall/PartitionedCall/PartitionedCall/tf.nn.convolution_59/convolution", "op": "Conv2D", "input": ["PartitionedCall/PartitionedCall/PartitionedCall/tf.math.multiply_173/Mul", "23140"], "device": "/device:CPU:0", "attr": {"use_cudnn_on_gpu": {"b": true}, "padding": {"s": "U0FNRQ=="}, "T": {"type": "DT_FLOAT"}, "dilations": {"list": {"i": ["1", "1", "1", "1"]}}, "strides": {"list": {"i": ["1", "1", "1", "1"]}}, "explicit_paddings": {"list": {}}, "data_format": {"s": "TkhXQw=="}}}, {"name": "PartitionedCall/PartitionedCall/PartitionedCall/tf.nn.convolution_60/convolution", "op": "Conv2D", "input": ["PartitionedCall/PartitionedCall/PartitionedCall/tf.math.multiply_176/Mul", "23138"], "device": "/device:CPU:0", "attr": {"T": {"type": "DT_FLOAT"}, "padding": {"s": "U0FNRQ=="}, "use_cudnn_on_gpu": {"b": true}, "strides": {"list": {"i": ["1", "1", "1", "1"]}}, "explicit_paddings": {"list": {}}, "data_format": {"s": "TkhXQw=="}, "dilations": {"list": {"i": ["1", "1", "1", "1"]}}}}, {"name": "PartitionedCall/PartitionedCall/PartitionedCall/tf.math.add_65/Add", "op": "AddV2", "input": ["PartitionedCall/PartitionedCall/PartitionedCall/tf.nn.convolution_59/convolution", "23152"], "attr": {"T": {"type": "DT_FLOAT"}}}, {"name": "PartitionedCall/PartitionedCall/PartitionedCall/tf.math.add_66/Add", "op": "AddV2", "input": ["PartitionedCall/PartitionedCall/PartitionedCall/tf.nn.convolution_60/convolution", "23150"], "attr": {"T": {"type": "DT_FLOAT"}}}, {"name": "PartitionedCall/PartitionedCall/PartitionedCall/tf.math.sigmoid_55/Sigmoid", "op": "Sigmoid", "input": ["PartitionedCall/PartitionedCall/PartitionedCall/tf.math.add_65/Add"], "attr": {"T": {"type": "DT_FLOAT"}}}, {"name": "PartitionedCall/PartitionedCall/PartitionedCall/tf.math.sigmoid_56/Sigmoid", "op": "Sigmoid", "input": ["PartitionedCall/PartitionedCall/PartitionedCall/tf.math.add_66/Add"], "attr": {"T": {"type": "DT_FLOAT"}}}, {"name": "PartitionedCall/PartitionedCall/PartitionedCall/tf.math.multiply_179/Mul", "op": "Mul", "input": ["PartitionedCall/PartitionedCall/PartitionedCall/tf.math.add_65/Add", "PartitionedCall/PartitionedCall/PartitionedCall/tf.math.sigmoid_55/Sigmoid"], "attr": {"T": {"type": "DT_FLOAT"}}}, {"name": "PartitionedCall/PartitionedCall/PartitionedCall/tf.math.multiply_182/Mul", "op": "Mul", "input": ["PartitionedCall/PartitionedCall/PartitionedCall/tf.math.add_66/Add", "PartitionedCall/PartitionedCall/PartitionedCall/tf.math.sigmoid_56/Sigmoid"], "attr": {"T": {"type": "DT_FLOAT"}}}, {"name": "PartitionedCall/PartitionedCall/PartitionedCall/tf.nn.convolution_61/convolution", "op": "Conv2D", "input": ["PartitionedCall/PartitionedCall/PartitionedCall/tf.math.multiply_179/Mul", "23164"], "device": "/device:CPU:0", "attr": {"use_cudnn_on_gpu": {"b": true}, "data_format": {"s": "TkhXQw=="}, "dilations": {"list": {"i": ["1", "1", "1", "1"]}}, "explicit_paddings": {"list": {}}, "padding": {"s": "U0FNRQ=="}, "strides": {"list": {"i": ["1", "1", "1", "1"]}}, "T": {"type": "DT_FLOAT"}}}, {"name": "PartitionedCall/PartitionedCall/PartitionedCall/tf.nn.convolution_62/convolution", "op": "Conv2D", "input": ["PartitionedCall/PartitionedCall/PartitionedCall/tf.math.multiply_182/Mul", "23162"], "device": "/device:CPU:0", "attr": {"T": {"type": "DT_FLOAT"}, "data_format": {"s": "TkhXQw=="}, "explicit_paddings": {"list": {}}, "dilations": {"list": {"i": ["1", "1", "1", "1"]}}, "padding": {"s": "U0FNRQ=="}, "use_cudnn_on_gpu": {"b": true}, "strides": {"list": {"i": ["1", "1", "1", "1"]}}}}, {"name": "PartitionedCall/PartitionedCall/PartitionedCall/tf.math.add_67/Add", "op": "AddV2", "input": ["PartitionedCall/PartitionedCall/PartitionedCall/tf.nn.convolution_61/convolution", "23174"], "attr": {"T": {"type": "DT_FLOAT"}}}, {"name": "PartitionedCall/PartitionedCall/PartitionedCall/tf.math.add_68/Add", "op": "AddV2", "input": ["PartitionedCall/PartitionedCall/PartitionedCall/tf.nn.convolution_62/convolution", "23176"], "attr": {"T": {"type": "DT_FLOAT"}}}, {"name": "PartitionedCall/PartitionedCall/PartitionedCall/tf.concat_15/concat", "op": "ConcatV2", "input": ["PartitionedCall/PartitionedCall/PartitionedCall/tf.math.add_67/Add", "PartitionedCall/PartitionedCall/PartitionedCall/tf.math.add_68/Add", "PartitionedCall/PartitionedCall/PartitionedCall/tf.concat_15/concat/axis"], "attr": {"Tidx": {"type": "DT_INT32"}, "T": {"type": "DT_FLOAT"}, "N": {"i": "2"}}}, {"name": "PartitionedCall/PartitionedCall/PartitionedCall/tf.compat.v1.transpose_2/transpose", "op": "Transpose", "input": ["PartitionedCall/PartitionedCall/PartitionedCall/tf.concat_15/concat", "PartitionedCall/PartitionedCall/PartitionedCall/tf.compat.v1.transpose_2/transpose/perm"], "attr": {"Tperm": {"type": "DT_INT32"}, "T": {"type": "DT_FLOAT"}}}, {"name": "PartitionedCall/PartitionedCall/PartitionedCall/tf.reshape_2/Reshape", "op": "Reshape", "input": ["PartitionedCall/PartitionedCall/PartitionedCall/tf.compat.v1.transpose_2/transpose", "PartitionedCall/PartitionedCall/PartitionedCall/tf.reshape_2/Reshape/shape"], "attr": {"T": {"type": "DT_FLOAT"}, "Tshape": {"type": "DT_INT32"}}}, {"name": "PartitionedCall/PartitionedCall/PartitionedCall/tf.concat_16/concat", "op": "ConcatV2", "input": ["PartitionedCall/PartitionedCall/PartitionedCall/tf.reshape/Reshape", "PartitionedCall/PartitionedCall/PartitionedCall/tf.reshape_1/Reshape", "PartitionedCall/PartitionedCall/PartitionedCall/tf.reshape_2/Reshape", "PartitionedCall/PartitionedCall/PartitionedCall/tf.concat_16/concat/axis"], "attr": {"T": {"type": "DT_FLOAT"}, "Tidx": {"type": "DT_INT32"}, "N": {"i": "3"}}}, {"name": "PartitionedCall/PartitionedCall/PartitionedCall/tf.strided_slice_16/StridedSlice", "op": "StridedSlice", "input": ["PartitionedCall/PartitionedCall/PartitionedCall/tf.concat_16/concat", "23186", "23188", "PartitionedCall/PartitionedCall/PartitionedCall/tf.strided_slice_16/StridedSlice/strides"], "attr": {"ellipsis_mask": {"i": "0"}, "T": {"type": "DT_FLOAT"}, "end_mask": {"i": "5"}, "begin_mask": {"i": "7"}, "new_axis_mask": {"i": "0"}, "shrink_axis_mask": {"i": "0"}, "Index": {"type": "DT_INT64"}}}, {"name": "PartitionedCall/PartitionedCall/PartitionedCall/tf.strided_slice_17/StridedSlice", "op": "StridedSlice", "input": ["PartitionedCall/PartitionedCall/PartitionedCall/tf.concat_16/concat", "23206", "23208", "PartitionedCall/PartitionedCall/PartitionedCall/tf.strided_slice_17/StridedSlice/strides"], "attr": {"ellipsis_mask": {"i": "0"}, "T": {"type": "DT_FLOAT"}, "end_mask": {"i": "5"}, "shrink_axis_mask": {"i": "0"}, "begin_mask": {"i": "5"}, "new_axis_mask": {"i": "0"}, "Index": {"type": "DT_INT64"}}}, {"name": "PartitionedCall/PartitionedCall/PartitionedCall/tf.reshape_3/Reshape", "op": "Reshape", "input": ["PartitionedCall/PartitionedCall/PartitionedCall/tf.strided_slice_16/StridedSlice", "PartitionedCall/PartitionedCall/PartitionedCall/tf.reshape_3/Reshape/shape"], "attr": {"Tshape": {"type": "DT_INT32"}, "T": {"type": "DT_FLOAT"}}}, {"name": "PartitionedCall/PartitionedCall/PartitionedCall/tf.math.sigmoid_57/Sigmoid", "op": "Sigmoid", "input": ["PartitionedCall/PartitionedCall/PartitionedCall/tf.strided_slice_17/StridedSlice"], "attr": {"T": {"type": "DT_FLOAT"}}}, {"name": "PartitionedCall/PartitionedCall/PartitionedCall/tf.compat.v1.transpose_4/transpose", "op": "Transpose", "input": ["PartitionedCall/PartitionedCall/PartitionedCall/tf.reshape_3/Reshape", "PartitionedCall/PartitionedCall/PartitionedCall/tf.compat.v1.transpose_4/transpose/perm"], "attr": {"T": {"type": "DT_FLOAT"}, "Tperm": {"type": "DT_INT32"}}}, {"name": "PartitionedCall/PartitionedCall/PartitionedCall/tf.compat.v1.transpose_5/transpose", "op": "Transpose", "input": ["PartitionedCall/PartitionedCall/PartitionedCall/tf.compat.v1.transpose_4/transpose", "PartitionedCall/PartitionedCall/PartitionedCall/tf.compat.v1.transpose_5/transpose/perm"], "attr": {"Tperm": {"type": "DT_INT32"}, "T": {"type": "DT_FLOAT"}}}, {"name": "PartitionedCall/PartitionedCall/PartitionedCall/tf.nn.softmax/wa/model.22/dfl/Softmax", "op": "Softmax", "input": ["PartitionedCall/PartitionedCall/PartitionedCall/tf.compat.v1.transpose_5/transpose"], "attr": {"T": {"type": "DT_FLOAT"}}}, {"name": "PartitionedCall/PartitionedCall/PartitionedCall/tf.nn.convolution_63/convolution", "op": "Conv2D", "input": ["PartitionedCall/PartitionedCall/PartitionedCall/tf.nn.softmax/wa/model.22/dfl/Softmax", "23190"], "device": "/device:CPU:0", "attr": {"padding": {"s": "U0FNRQ=="}, "dilations": {"list": {"i": ["1", "1", "1", "1"]}}, "data_format": {"s": "TkhXQw=="}, "use_cudnn_on_gpu": {"b": true}, "explicit_paddings": {"list": {}}, "T": {"type": "DT_FLOAT"}, "strides": {"list": {"i": ["1", "1", "1", "1"]}}}}, {"name": "PartitionedCall/PartitionedCall/PartitionedCall/tf.compat.v1.transpose_8/transpose", "op": "Transpose", "input": ["PartitionedCall/PartitionedCall/PartitionedCall/tf.nn.convolution_63/convolution", "PartitionedCall/PartitionedCall/PartitionedCall/tf.compat.v1.transpose_8/transpose/perm"], "attr": {"T": {"type": "DT_FLOAT"}, "Tperm": {"type": "DT_INT32"}}}, {"name": "PartitionedCall/PartitionedCall/PartitionedCall/tf.reshape_4/Reshape", "op": "Reshape", "input": ["PartitionedCall/PartitionedCall/PartitionedCall/tf.compat.v1.transpose_8/transpose", "PartitionedCall/PartitionedCall/PartitionedCall/tf.reshape_4/Reshape/shape"], "attr": {"Tshape": {"type": "DT_INT32"}, "T": {"type": "DT_FLOAT"}}}, {"name": "PartitionedCall/PartitionedCall/PartitionedCall/tf.strided_slice_19/StridedSlice", "op": "StridedSlice", "input": ["PartitionedCall/PartitionedCall/PartitionedCall/tf.reshape_4/Reshape", "23192", "23194", "PartitionedCall/PartitionedCall/PartitionedCall/tf.strided_slice_19/ones_like"], "attr": {"begin_mask": {"i": "5"}, "T": {"type": "DT_FLOAT"}, "new_axis_mask": {"i": "0"}, "shrink_axis_mask": {"i": "0"}, "Index": {"type": "DT_INT64"}, "ellipsis_mask": {"i": "0"}, "end_mask": {"i": "5"}}}, {"name": "PartitionedCall/PartitionedCall/PartitionedCall/tf.strided_slice_18/StridedSlice", "op": "StridedSlice", "input": ["PartitionedCall/PartitionedCall/PartitionedCall/tf.reshape_4/Reshape", "23196", "23198", "PartitionedCall/PartitionedCall/PartitionedCall/tf.strided_slice_18/ones_like"], "attr": {"new_axis_mask": {"i": "0"}, "Index": {"type": "DT_INT64"}, "shrink_axis_mask": {"i": "0"}, "end_mask": {"i": "5"}, "ellipsis_mask": {"i": "0"}, "begin_mask": {"i": "7"}, "T": {"type": "DT_FLOAT"}}}, {"name": "PartitionedCall/PartitionedCall/PartitionedCall/tf.math.add_69/Add", "op": "AddV2", "input": ["23200", "PartitionedCall/PartitionedCall/PartitionedCall/tf.strided_slice_19/StridedSlice"], "attr": {"T": {"type": "DT_FLOAT"}}}, {"name": "PartitionedCall/PartitionedCall/PartitionedCall/tf.math.subtract/Sub", "op": "Sub", "input": ["23202", "PartitionedCall/PartitionedCall/PartitionedCall/tf.strided_slice_18/StridedSlice"], "attr": {"T": {"type": "DT_FLOAT"}}}, {"name": "PartitionedCall/PartitionedCall/PartitionedCall/tf.math.add_70/Add", "op": "AddV2", "input": ["PartitionedCall/PartitionedCall/PartitionedCall/tf.math.subtract/Sub", "PartitionedCall/PartitionedCall/PartitionedCall/tf.math.add_69/Add"], "attr": {"T": {"type": "DT_FLOAT"}}}, {"name": "PartitionedCall/PartitionedCall/PartitionedCall/tf.math.subtract_1/Sub", "op": "Sub", "input": ["PartitionedCall/PartitionedCall/PartitionedCall/tf.math.add_69/Add", "PartitionedCall/PartitionedCall/PartitionedCall/tf.math.subtract/Sub"], "attr": {"T": {"type": "DT_FLOAT"}}}, {"name": "PartitionedCall/PartitionedCall/PartitionedCall/tf.math.divide/truediv", "op": "Mul", "input": ["PartitionedCall/PartitionedCall/PartitionedCall/tf.math.add_70/Add", "ConstantFolding/PartitionedCall/PartitionedCall/PartitionedCall/tf.math.divide/truediv_recip"], "attr": {"T": {"type": "DT_FLOAT"}}}, {"name": "PartitionedCall/PartitionedCall/PartitionedCall/tf.concat_17/concat", "op": "ConcatV2", "input": ["PartitionedCall/PartitionedCall/PartitionedCall/tf.math.divide/truediv", "PartitionedCall/PartitionedCall/PartitionedCall/tf.math.subtract_1/Sub", "PartitionedCall/PartitionedCall/PartitionedCall/tf.concat_17/concat/axis"], "attr": {"T": {"type": "DT_FLOAT"}, "N": {"i": "2"}, "Tidx": {"type": "DT_INT32"}}}, {"name": "PartitionedCall/PartitionedCall/PartitionedCall/tf.math.multiply_195/Mul", "op": "Mul", "input": ["PartitionedCall/PartitionedCall/PartitionedCall/tf.concat_17/concat", "PartitionedCall/PartitionedCall/PartitionedCall/tf.math.multiply_195/Mul/y"], "attr": {"T": {"type": "DT_FLOAT"}}}, {"name": "PartitionedCall/PartitionedCall/PartitionedCall/output0/concat", "op": "ConcatV2", "input": ["PartitionedCall/PartitionedCall/PartitionedCall/tf.math.multiply_195/Mul", "PartitionedCall/PartitionedCall/PartitionedCall/tf.math.sigmoid_57/Sigmoid", "PartitionedCall/PartitionedCall/PartitionedCall/output0/concat/axis"], "attr": {"N": {"i": "2"}, "Tidx": {"type": "DT_INT32"}, "T": {"type": "DT_FLOAT"}}}, {"name": "Identity", "op": "Identity", "input": ["PartitionedCall/PartitionedCall/PartitionedCall/output0/concat"], "attr": {"T": {"type": "DT_FLOAT"}}}], "library": {}, "versions": {"producer": 1482}}, "weightsManifest": [{"paths": ["group1-shard1of1.bin"], "weights": [{"name": "ConstantFolding/PartitionedCall/PartitionedCall/PartitionedCall/tf.math.divide/truediv_recip", "shape": [1, 1, 1], "dtype": "float32", "quantization": {"dtype": "uint8", "min": 0.5, "scale": 1.0, "original_dtype": "float32"}}, {"name": "23200", "shape": [1, 2, 8400], "dtype": "float32", "quantization": {"dtype": "uint8", "min": 0.5, "scale": 0.30980392156862746, "original_dtype": "float32"}}, {"name": "23192", "shape": [3], "dtype": "int32"}, {"name": "23194", "shape": [3], "dtype": "int32"}, {"name": "PartitionedCall/PartitionedCall/PartitionedCall/tf.strided_slice_19/ones_like", "shape": [3], "dtype": "int32"}, {"name": "23202", "shape": [1, 2, 8400], "dtype": "float32", "quantization": {"dtype": "uint8", "min": 0.5, "scale": 0.30980392156862746, "original_dtype": "float32"}}, {"name": "23186", "shape": [3], "dtype": "int32"}, {"name": "23188", "shape": [3], "dtype": "int32"}, {"name": "PartitionedCall/PartitionedCall/PartitionedCall/tf.strided_slice_16/StridedSlice/strides", "shape": [3], "dtype": "int32"}, {"name": "PartitionedCall/PartitionedCall/PartitionedCall/tf.reshape_3/Reshape/shape", "shape": [4], "dtype": "int32"}, {"name": "PartitionedCall/PartitionedCall/PartitionedCall/tf.compat.v1.transpose_4/transpose/perm", "shape": [4], "dtype": "int32"}, {"name": "PartitionedCall/PartitionedCall/PartitionedCall/tf.compat.v1.transpose_5/transpose/perm", "shape": [4], "dtype": "int32"}, {"name": "23190", "shape": [1, 1, 16, 1], "dtype": "float32", "quantization": {"dtype": "uint8", "min": -0.0, "scale": 0.058823529411764705, "original_dtype": "float32"}}, {"name": "PartitionedCall/PartitionedCall/PartitionedCall/tf.compat.v1.transpose_8/transpose/perm", "shape": [4], "dtype": "int32"}, {"name": "PartitionedCall/PartitionedCall/PartitionedCall/tf.reshape_4/Reshape/shape", "shape": [3], "dtype": "int32"}, {"name": "23196", "shape": [3], "dtype": "int32"}, {"name": "23198", "shape": [3], "dtype": "int32"}, {"name": "PartitionedCall/PartitionedCall/PartitionedCall/tf.strided_slice_18/ones_like", "shape": [3], "dtype": "int32"}, {"name": "PartitionedCall/PartitionedCall/PartitionedCall/tf.concat_17/concat/axis", "shape": [], "dtype": "int32"}, {"name": "PartitionedCall/PartitionedCall/PartitionedCall/tf.math.multiply_195/Mul/y", "shape": [1, 1, 8400], "dtype": "float32", "quantization": {"dtype": "uint8", "min": 8.0, "scale": 0.09411764705882353, "original_dtype": "float32"}}, {"name": "23124", "shape": [3, 3, 64, 64], "dtype": "float32", "quantization": {"dtype": "uint8", "min": -0.25691858950783225, "scale": 0.0022536718377880022, "original_dtype": "float32"}}, {"name": "23136", "shape": [64], "dtype": "float32", "quantization": {"dtype": "uint8", "min": -4.471040702333638, "scale": 0.027429697560329064, "original_dtype": "float32"}}, {"name": "23148", "shape": [3, 3, 64, 64], "dtype": "float32", "quantization": {"dtype": "uint8", "min": -0.4690983727866528, "scale": 0.0049378776082805555, "original_dtype": "float32"}}, {"name": "23160", "shape": [64], "dtype": "float32", "quantization": {"dtype": "uint8", "min": -1.262133949878169, "scale": 0.02035699919158337, "original_dtype": "float32"}}, {"name": "23172", "shape": [1, 1, 64, 64], "dtype": "float32", "quantization": {"dtype": "uint8", "min": -0.16540000765931373, "scale": 0.001705154718137255, "original_dtype": "float32"}}, {"name": "23182", "shape": [64], "dtype": "float32", "quantization": {"dtype": "uint8", "min": -1.2513097426470587, "scale": 0.016042432598039214, "original_dtype": "float32"}}, {"name": "23122", "shape": [3, 3, 64, 64], "dtype": "float32", "quantization": {"dtype": "uint8", "min": -0.18040360913557163, "scale": 0.0018222586781370873, "original_dtype": "float32"}}, {"name": "23134", "shape": [64], "dtype": "float32", "quantization": {"dtype": "uint8", "min": -3.2638110422620588, "scale": 0.04238715639301375, "original_dtype": "float32"}}, {"name": "23146", "shape": [3, 3, 64, 64], "dtype": "float32", "quantization": {"dtype": "uint8", "min": -0.12505222190828885, "scale": 0.0009061755210745568, "original_dtype": "float32"}}, {"name": "23158", "shape": [64], "dtype": "float32", "quantization": {"dtype": "uint8", "min": 0.19697077572345734, "scale": 0.00648213338618185, "original_dtype": "float32"}}, {"name": "23170", "shape": [1, 1, 64, 5], "dtype": "float32", "quantization": {"dtype": "uint8", "min": -0.33158126531862747, "scale": 0.0028100107230392157, "original_dtype": "float32"}}, {"name": "23184", "shape": [5], "dtype": "float32", "quantization": {"dtype": "uint8", "min": -10.265625, "scale": 0.0010723039215686275, "original_dtype": "float32"}}, {"name": "PartitionedCall/PartitionedCall/PartitionedCall/tf.concat_10/concat/axis", "shape": [], "dtype": "int32"}, {"name": "PartitionedCall/PartitionedCall/PartitionedCall/tf.compat.v1.transpose/transpose/perm", "shape": [4], "dtype": "int32"}, {"name": "PartitionedCall/PartitionedCall/PartitionedCall/tf.reshape/Reshape/shape", "shape": [3], "dtype": "int32"}, {"name": "23120", "shape": [3, 3, 128, 64], "dtype": "float32", "quantization": {"dtype": "uint8", "min": -0.3322603106498718, "scale": 0.0032574540259791354, "original_dtype": "float32"}}, {"name": "23132", "shape": [64], "dtype": "float32", "quantization": {"dtype": "uint8", "min": -2.5841005390765623, "scale": 0.02034724833918553, "original_dtype": "float32"}}, {"name": "23144", "shape": [3, 3, 64, 64], "dtype": "float32", "quantization": {"dtype": "uint8", "min": -0.40307559546302346, "scale": 0.003567040667814367, "original_dtype": "float32"}}, {"name": "23156", "shape": [64], "dtype": "float32", "quantization": {"dtype": "uint8", "min": 0.4980224072933197, "scale": 0.008749994226530486, "original_dtype": "float32"}}, {"name": "23168", "shape": [1, 1, 64, 64], "dtype": "float32", "quantization": {"dtype": "uint8", "min": -0.39416360294117647, "scale": 0.0036496629901960785, "original_dtype": "float32"}}, {"name": "23178", "shape": [64], "dtype": "float32", "quantization": {"dtype": "uint8", "min": -1.2546453737745098, "scale": 0.01588158700980392, "original_dtype": "float32"}}, {"name": "23118", "shape": [3, 3, 128, 64], "dtype": "float32", "quantization": {"dtype": "uint8", "min": -0.23024023221988307, "scale": 0.0023736106414420934, "original_dtype": "float32"}}, {"name": "23130", "shape": [64], "dtype": "float32", "quantization": {"dtype": "uint8", "min": -2.3458633263905844, "scale": 0.01971313719655953, "original_dtype": "float32"}}, {"name": "23142", "shape": [3, 3, 64, 64], "dtype": "float32", "quantization": {"dtype": "uint8", "min": -0.1515441008642608, "scale": 0.001306414662622938, "original_dtype": "float32"}}, {"name": "23154", "shape": [64], "dtype": "float32", "quantization": {"dtype": "uint8", "min": -0.7560786055583579, "scale": 0.010801122936547971, "original_dtype": "float32"}}, {"name": "23166", "shape": [1, 1, 64, 5], "dtype": "float32", "quantization": {"dtype": "uint8", "min": -0.3212316176470588, "scale": 0.0026769301470588236, "original_dtype": "float32"}}, {"name": "23180", "shape": [5], "dtype": "float32", "quantization": {"dtype": "uint8", "min": -9.21875, "scale": 0.006924019607843137, "original_dtype": "float32"}}, {"name": "PartitionedCall/PartitionedCall/PartitionedCall/tf.concat_13/concat/axis", "shape": [], "dtype": "int32"}, {"name": "PartitionedCall/PartitionedCall/PartitionedCall/tf.compat.v1.transpose_1/transpose/perm", "shape": [4], "dtype": "int32"}, {"name": "PartitionedCall/PartitionedCall/PartitionedCall/tf.reshape_1/Reshape/shape", "shape": [3], "dtype": "int32"}, {"name": "23116", "shape": [3, 3, 256, 64], "dtype": "float32", "quantization": {"dtype": "uint8", "min": -0.4833575599333819, "scale": 0.005555834022222781, "original_dtype": "float32"}}, {"name": "23128", "shape": [64], "dtype": "float32", "quantization": {"dtype": "uint8", "min": -1.5725584217146331, "scale": 0.012096603243958717, "original_dtype": "float32"}}, {"name": "23140", "shape": [3, 3, 64, 64], "dtype": "float32", "quantization": {"dtype": "uint8", "min": -0.2731037578162025, "scale": 0.002334220152275235, "original_dtype": "float32"}}, {"name": "23152", "shape": [64], "dtype": "float32", "quantization": {"dtype": "uint8", "min": -0.043864739583987816, "scale": 0.008772947916797563, "original_dtype": "float32"}}, {"name": "23164", "shape": [1, 1, 64, 64], "dtype": "float32", "quantization": {"dtype": "uint8", "min": -1.0583409926470588, "scale": 0.009045649509803922, "original_dtype": "float32"}}, {"name": "23174", "shape": [64], "dtype": "float32", "quantization": {"dtype": "uint8", "min": -1.6727596507352942, "scale": 0.017244944852941178, "original_dtype": "float32"}}, {"name": "23106", "shape": [4], "dtype": "int32"}, {"name": "23108", "shape": [4], "dtype": "int32"}, {"name": "PartitionedCall/PartitionedCall/PartitionedCall/tf.strided_slice_14/ones_like", "shape": [4], "dtype": "int32"}, {"name": "23076", "shape": [4], "dtype": "int32"}, {"name": "23078", "shape": [4], "dtype": "int32"}, {"name": "PartitionedCall/PartitionedCall/PartitionedCall/tf.strided_slice_12/ones_like", "shape": [4], "dtype": "int32"}, {"name": "23046", "shape": [4], "dtype": "int32"}, {"name": "23048", "shape": [4], "dtype": "int32"}, {"name": "PartitionedCall/PartitionedCall/PartitionedCall/tf.strided_slice_10/ones_like", "shape": [4], "dtype": "int32"}, {"name": "PartitionedCall/PartitionedCall/PartitionedCall/lambda_1/PartitionedCall/wa/model.13/Resize/size", "shape": [2], "dtype": "int32"}, {"name": "PartitionedCall/PartitionedCall/PartitionedCall/tf.concat_7/concat/axis", "shape": [], "dtype": "int32"}, {"name": "23030", "shape": [1, 1, 192, 64], "dtype": "float32", "quantization": {"dtype": "uint8", "min": -0.6422356254914228, "scale": 0.004653881344140745, "original_dtype": "float32"}}, {"name": "23032", "shape": [64], "dtype": "float32", "quantization": {"dtype": "uint8", "min": -2.3460334329044117, "scale": 0.01629189883961397, "original_dtype": "float32"}}, {"name": "23034", "shape": [4], "dtype": "int32"}, {"name": "23036", "shape": [4], "dtype": "int32"}, {"name": "PartitionedCall/PartitionedCall/PartitionedCall/tf.strided_slice_11/ones_like", "shape": [4], "dtype": "int32"}, {"name": "23038", "shape": [3, 3, 32, 32], "dtype": "float32", "quantization": {"dtype": "uint8", "min": -0.35696985148916055, "scale": 0.0031040856651231353, "original_dtype": "float32"}}, {"name": "23040", "shape": [32], "dtype": "float32", "quantization": {"dtype": "uint8", "min": -2.4898956298828123, "scale": 0.017290941874186196, "original_dtype": "float32"}}, {"name": "23042", "shape": [3, 3, 32, 32], "dtype": "float32", "quantization": {"dtype": "uint8", "min": -1.0887141246421663, "scale": 0.008185820486031326, "original_dtype": "float32"}}, {"name": "23044", "shape": [32], "dtype": "float32", "quantization": {"dtype": "uint8", "min": -1.5843670863731234, "scale": 0.01908876007678462, "original_dtype": "float32"}}, {"name": "PartitionedCall/PartitionedCall/PartitionedCall/tf.concat_8/concat/axis", "shape": [], "dtype": "int32"}, {"name": "23050", "shape": [1, 1, 96, 64], "dtype": "float32", "quantization": {"dtype": "uint8", "min": -0.6177704334259033, "scale": 0.0058280229568481445, "original_dtype": "float32"}}, {"name": "23052", "shape": [64], "dtype": "float32", "quantization": {"dtype": "uint8", "min": -3.4991188498104315, "scale": 0.024816445743336395, "original_dtype": "float32"}}, {"name": "23054", "shape": [4, 2], "dtype": "int32"}, {"name": "23056", "shape": [3, 3, 64, 64], "dtype": "float32", "quantization": {"dtype": "uint8", "min": -0.31628672632516597, "scale": 0.0027503193593492693, "original_dtype": "float32"}}, {"name": "23058", "shape": [64], "dtype": "float32", "quantization": {"dtype": "uint8", "min": -3.138978745890599, "scale": 0.021950900320913277, "original_dtype": "float32"}}, {"name": "23022", "shape": [4], "dtype": "int32"}, {"name": "23024", "shape": [4], "dtype": "int32"}, {"name": "PartitionedCall/PartitionedCall/PartitionedCall/tf.strided_slice_8/ones_like", "shape": [4], "dtype": "int32"}, {"name": "PartitionedCall/PartitionedCall/PartitionedCall/lambda/PartitionedCall/wa/model.10/Resize/size", "shape": [2], "dtype": "int32"}, {"name": "PartitionedCall/PartitionedCall/PartitionedCall/tf.concat_5/concat/axis", "shape": [], "dtype": "int32"}, {"name": "23006", "shape": [1, 1, 384, 128], "dtype": "float32", "quantization": {"dtype": "uint8", "min": -1.3411811143744226, "scale": 0.009001215532714246, "original_dtype": "float32"}}, {"name": "23008", "shape": [128], "dtype": "float32", "quantization": {"dtype": "uint8", "min": -3.1797482181997863, "scale": 0.019507657780366786, "original_dtype": "float32"}}, {"name": "23010", "shape": [4], "dtype": "int32"}, {"name": "23012", "shape": [4], "dtype": "int32"}, {"name": "PartitionedCall/PartitionedCall/PartitionedCall/tf.strided_slice_9/ones_like", "shape": [4], "dtype": "int32"}, {"name": "23014", "shape": [3, 3, 64, 64], "dtype": "float32", "quantization": {"dtype": "uint8", "min": -0.40735423179233776, "scale": 0.00306281377287472, "original_dtype": "float32"}}, {"name": "23016", "shape": [64], "dtype": "float32", "quantization": {"dtype": "uint8", "min": -2.5574722051620484, "scale": 0.01671550460890228, "original_dtype": "float32"}}, {"name": "23018", "shape": [3, 3, 64, 64], "dtype": "float32", "quantization": {"dtype": "uint8", "min": -0.5552800893783569, "scale": 0.005048000812530517, "original_dtype": "float32"}}, {"name": "23020", "shape": [64], "dtype": "float32", "quantization": {"dtype": "uint8", "min": -1.621970352004556, "scale": 0.01201459520003375, "original_dtype": "float32"}}, {"name": "PartitionedCall/PartitionedCall/PartitionedCall/tf.concat_6/concat/axis", "shape": [], "dtype": "int32"}, {"name": "23026", "shape": [1, 1, 192, 128], "dtype": "float32", "quantization": {"dtype": "uint8", "min": -0.7608263244815902, "scale": 0.006236281348209755, "original_dtype": "float32"}}, {"name": "23028", "shape": [128], "dtype": "float32", "quantization": {"dtype": "uint8", "min": -1.9416366539749443, "scale": 0.012059854993633195, "original_dtype": "float32"}}, {"name": "PartitionedCall/PartitionedCall/PartitionedCall/tf.concat_9/concat/axis", "shape": [], "dtype": "int32"}, {"name": "23060", "shape": [1, 1, 192, 128], "dtype": "float32", "quantization": {"dtype": "uint8", "min": -0.6715989767336378, "scale": 0.005839991102031633, "original_dtype": "float32"}}, {"name": "23062", "shape": [128], "dtype": "float32", "quantization": {"dtype": "uint8", "min": -2.130830899406882, "scale": 0.017465827044318705, "original_dtype": "float32"}}, {"name": "23064", "shape": [4], "dtype": "int32"}, {"name": "23066", "shape": [4], "dtype": "int32"}, {"name": "PartitionedCall/PartitionedCall/PartitionedCall/tf.strided_slice_13/ones_like", "shape": [4], "dtype": "int32"}, {"name": "23068", "shape": [3, 3, 64, 64], "dtype": "float32", "quantization": {"dtype": "uint8", "min": -0.3353153958040125, "scale": 0.0030483217800364774, "original_dtype": "float32"}}, {"name": "23070", "shape": [64], "dtype": "float32", "quantization": {"dtype": "uint8", "min": -1.7038484881905949, "scale": 0.016227128458958046, "original_dtype": "float32"}}, {"name": "23072", "shape": [3, 3, 64, 64], "dtype": "float32", "quantization": {"dtype": "uint8", "min": -0.9876157321181952, "scale": 0.008369624848459281, "original_dtype": "float32"}}, {"name": "23074", "shape": [64], "dtype": "float32", "quantization": {"dtype": "uint8", "min": -2.449881497551413, "scale": 0.02268408794029086, "original_dtype": "float32"}}, {"name": "PartitionedCall/PartitionedCall/PartitionedCall/tf.concat_11/concat/axis", "shape": [], "dtype": "int32"}, {"name": "23080", "shape": [1, 1, 192, 128], "dtype": "float32", "quantization": {"dtype": "uint8", "min": -0.46177980537508045, "scale": 0.0047606165502585614, "original_dtype": "float32"}}, {"name": "23082", "shape": [128], "dtype": "float32", "quantization": {"dtype": "uint8", "min": -3.7175835366342582, "scale": 0.02352900972553328, "original_dtype": "float32"}}, {"name": "23084", "shape": [4, 2], "dtype": "int32"}, {"name": "23086", "shape": [3, 3, 128, 128], "dtype": "float32", "quantization": {"dtype": "uint8", "min": -0.2510702354066512, "scale": 0.0025360629839055676, "original_dtype": "float32"}}, {"name": "23088", "shape": [128], "dtype": "float32", "quantization": {"dtype": "uint8", "min": -2.060710178637037, "scale": 0.01411445327833587, "original_dtype": "float32"}}, {"name": "22990", "shape": [4], "dtype": "int32"}, {"name": "22992", "shape": [4], "dtype": "int32"}, {"name": "PartitionedCall/PartitionedCall/PartitionedCall/tf.strided_slice_6/ones_like", "shape": [4], "dtype": "int32"}, {"name": "22960", "shape": [4], "dtype": "int32"}, {"name": "22962", "shape": [4], "dtype": "int32"}, {"name": "PartitionedCall/PartitionedCall/PartitionedCall/tf.strided_slice_4/ones_like", "shape": [4], "dtype": "int32"}, {"name": "22922", "shape": [4], "dtype": "int32"}, {"name": "22924", "shape": [4], "dtype": "int32"}, {"name": "PartitionedCall/PartitionedCall/PartitionedCall/tf.strided_slice_2/ones_like", "shape": [4], "dtype": "int32"}, {"name": "22884", "shape": [4], "dtype": "int32"}, {"name": "22886", "shape": [4], "dtype": "int32"}, {"name": "PartitionedCall/PartitionedCall/PartitionedCall/tf.strided_slice/ones_like", "shape": [4], "dtype": "int32"}, {"name": "22856", "shape": [4, 2], "dtype": "int32"}, {"name": "22858", "shape": [3, 3, 3, 16], "dtype": "float32", "quantization": {"dtype": "uint8", "min": -22.930419944314394, "scale": 0.14421647763719744, "original_dtype": "float32"}}, {"name": "22860", "shape": [16], "dtype": "float32", "quantization": {"dtype": "uint8", "min": -17.793673044092515, "scale": 0.09566490883920707, "original_dtype": "float32"}}, {"name": "22862", "shape": [4, 2], "dtype": "int32"}, {"name": "22864", "shape": [3, 3, 16, 32], "dtype": "float32", "quantization": {"dtype": "uint8", "min": -1.8875714863047879, "scale": 0.01613308962653665, "original_dtype": "float32"}}, {"name": "22866", "shape": [32], "dtype": "float32", "quantization": {"dtype": "uint8", "min": -0.5833600212545956, "scale": 0.032408890069699756, "original_dtype": "float32"}}, {"name": "22868", "shape": [1, 1, 32, 32], "dtype": "float32", "quantization": {"dtype": "uint8", "min": -0.9272190582518484, "scale": 0.006140523564581777, "original_dtype": "float32"}}, {"name": "22870", "shape": [32], "dtype": "float32", "quantization": {"dtype": "uint8", "min": -1.6350113027236042, "scale": 0.022708490315605612, "original_dtype": "float32"}}, {"name": "22872", "shape": [4], "dtype": "int32"}, {"name": "22874", "shape": [4], "dtype": "int32"}, {"name": "PartitionedCall/PartitionedCall/PartitionedCall/tf.strided_slice_1/ones_like", "shape": [4], "dtype": "int32"}, {"name": "22876", "shape": [3, 3, 16, 16], "dtype": "float32", "quantization": {"dtype": "uint8", "min": -1.6944719426772172, "scale": 0.011767166268591787, "original_dtype": "float32"}}, {"name": "22878", "shape": [16], "dtype": "float32", "quantization": {"dtype": "uint8", "min": -0.44752760424333465, "scale": 0.04068432765848497, "original_dtype": "float32"}}, {"name": "22880", "shape": [3, 3, 16, 16], "dtype": "float32", "quantization": {"dtype": "uint8", "min": -0.7562504317246231, "scale": 0.005520076143975351, "original_dtype": "float32"}}, {"name": "22882", "shape": [16], "dtype": "float32", "quantization": {"dtype": "uint8", "min": -2.122871982350069, "scale": 0.024123545253978057, "original_dtype": "float32"}}, {"name": "PartitionedCall/PartitionedCall/PartitionedCall/tf.concat/concat/axis", "shape": [], "dtype": "int32"}, {"name": "22888", "shape": [1, 1, 48, 32], "dtype": "float32", "quantization": {"dtype": "uint8", "min": -0.589081340677598, "scale": 0.004462737429375742, "original_dtype": "float32"}}, {"name": "22890", "shape": [32], "dtype": "float32", "quantization": {"dtype": "uint8", "min": -1.2039567358353558, "scale": 0.028665636567508472, "original_dtype": "float32"}}, {"name": "22892", "shape": [4, 2], "dtype": "int32"}, {"name": "22894", "shape": [3, 3, 32, 64], "dtype": "float32", "quantization": {"dtype": "uint8", "min": -0.3249339552486644, "scale": 0.0024616208730959426, "original_dtype": "float32"}}, {"name": "22896", "shape": [64], "dtype": "float32", "quantization": {"dtype": "uint8", "min": -2.6428697773054535, "scale": 0.023597051583084405, "original_dtype": "float32"}}, {"name": "22898", "shape": [1, 1, 64, 64], "dtype": "float32", "quantization": {"dtype": "uint8", "min": -1.7064130427790625, "scale": 0.011932958341112325, "original_dtype": "float32"}}, {"name": "22900", "shape": [64], "dtype": "float32", "quantization": {"dtype": "uint8", "min": -3.630701108072318, "scale": 0.030768653458239984, "original_dtype": "float32"}}, {"name": "22902", "shape": [4], "dtype": "int32"}, {"name": "22904", "shape": [4], "dtype": "int32"}, {"name": "PartitionedCall/PartitionedCall/PartitionedCall/tf.strided_slice_3/ones_like", "shape": [4], "dtype": "int32"}, {"name": "22906", "shape": [3, 3, 32, 32], "dtype": "float32", "quantization": {"dtype": "uint8", "min": -0.5398478737064437, "scale": 0.003623140091989555, "original_dtype": "float32"}}, {"name": "22908", "shape": [32], "dtype": "float32", "quantization": {"dtype": "uint8", "min": -1.6408228659162334, "scale": 0.023110181210087795, "original_dtype": "float32"}}, {"name": "22910", "shape": [3, 3, 32, 32], "dtype": "float32", "quantization": {"dtype": "uint8", "min": -0.6437867076957926, "scale": 0.004379501412896549, "original_dtype": "float32"}}, {"name": "22912", "shape": [32], "dtype": "float32", "quantization": {"dtype": "uint8", "min": -1.4736290071524825, "scale": 0.01178903205721986, "original_dtype": "float32"}}, {"name": "22914", "shape": [3, 3, 32, 32], "dtype": "float32", "quantization": {"dtype": "uint8", "min": -0.3669701268859938, "scale": 0.0026400728552949193, "original_dtype": "float32"}}, {"name": "22916", "shape": [32], "dtype": "float32", "quantization": {"dtype": "uint8", "min": -2.0773215153638054, "scale": 0.015162930769078872, "original_dtype": "float32"}}, {"name": "22918", "shape": [3, 3, 32, 32], "dtype": "float32", "quantization": {"dtype": "uint8", "min": -1.2396552436492023, "scale": 0.009463017127093147, "original_dtype": "float32"}}, {"name": "22920", "shape": [32], "dtype": "float32", "quantization": {"dtype": "uint8", "min": -2.3836676279703775, "scale": 0.021669705708821613, "original_dtype": "float32"}}, {"name": "PartitionedCall/PartitionedCall/PartitionedCall/tf.concat_1/concat/axis", "shape": [], "dtype": "int32"}, {"name": "22926", "shape": [1, 1, 128, 64], "dtype": "float32", "quantization": {"dtype": "uint8", "min": -0.4790436553020103, "scale": 0.003926587338541068, "original_dtype": "float32"}}, {"name": "22928", "shape": [64], "dtype": "float32", "quantization": {"dtype": "uint8", "min": -2.0895438530865835, "scale": 0.03370232021107393, "original_dtype": "float32"}}, {"name": "22930", "shape": [4, 2], "dtype": "int32"}, {"name": "22932", "shape": [3, 3, 64, 128], "dtype": "float32", "quantization": {"dtype": "uint8", "min": -0.395468368249781, "scale": 0.002929395320368748, "original_dtype": "float32"}}, {"name": "22934", "shape": [128], "dtype": "float32", "quantization": {"dtype": "uint8", "min": -2.1601276486527685, "scale": 0.013758774832183239, "original_dtype": "float32"}}, {"name": "22936", "shape": [1, 1, 128, 128], "dtype": "float32", "quantization": {"dtype": "uint8", "min": -0.8656571233973783, "scale": 0.0066080696442547965, "original_dtype": "float32"}}, {"name": "22938", "shape": [128], "dtype": "float32", "quantization": {"dtype": "uint8", "min": -4.535224749060238, "scale": 0.030034600987153895, "original_dtype": "float32"}}, {"name": "22940", "shape": [4], "dtype": "int32"}, {"name": "22942", "shape": [4], "dtype": "int32"}, {"name": "PartitionedCall/PartitionedCall/PartitionedCall/tf.strided_slice_5/ones_like", "shape": [4], "dtype": "int32"}, {"name": "22944", "shape": [3, 3, 64, 64], "dtype": "float32", "quantization": {"dtype": "uint8", "min": -0.6662905253616034, "scale": 0.005506533267451268, "original_dtype": "float32"}}, {"name": "22946", "shape": [64], "dtype": "float32", "quantization": {"dtype": "uint8", "min": -1.7813003072551652, "scale": 0.01895000326867197, "original_dtype": "float32"}}, {"name": "22948", "shape": [3, 3, 64, 64], "dtype": "float32", "quantization": {"dtype": "uint8", "min": -0.4543700423895144, "scale": 0.004056875378477807, "original_dtype": "float32"}}, {"name": "22950", "shape": [64], "dtype": "float32", "quantization": {"dtype": "uint8", "min": -1.6200237274169922, "scale": 0.009529551337747013, "original_dtype": "float32"}}, {"name": "22952", "shape": [3, 3, 64, 64], "dtype": "float32", "quantization": {"dtype": "uint8", "min": -0.35375777681668596, "scale": 0.0029727544270309746, "original_dtype": "float32"}}, {"name": "22954", "shape": [64], "dtype": "float32", "quantization": {"dtype": "uint8", "min": -1.5941091144786161, "scale": 0.01678009594188017, "original_dtype": "float32"}}, {"name": "22956", "shape": [3, 3, 64, 64], "dtype": "float32", "quantization": {"dtype": "uint8", "min": -1.0442935452741735, "scale": 0.009408049957424986, "original_dtype": "float32"}}, {"name": "22958", "shape": [64], "dtype": "float32", "quantization": {"dtype": "uint8", "min": -2.1111637115478517, "scale": 0.031046525169821346, "original_dtype": "float32"}}, {"name": "PartitionedCall/PartitionedCall/PartitionedCall/tf.concat_2/concat/axis", "shape": [], "dtype": "int32"}, {"name": "22964", "shape": [1, 1, 256, 128], "dtype": "float32", "quantization": {"dtype": "uint8", "min": -0.40564625193091003, "scale": 0.002856663745992324, "original_dtype": "float32"}}, {"name": "22966", "shape": [128], "dtype": "float32", "quantization": {"dtype": "uint8", "min": -2.4490510491763846, "scale": 0.0189848918540805, "original_dtype": "float32"}}, {"name": "22968", "shape": [4, 2], "dtype": "int32"}, {"name": "22970", "shape": [3, 3, 128, 256], "dtype": "float32", "quantization": {"dtype": "uint8", "min": -0.34019804211223825, "scale": 0.0030648472262363806, "original_dtype": "float32"}}, {"name": "22972", "shape": [256], "dtype": "float32", "quantization": {"dtype": "uint8", "min": -3.0911412019355624, "scale": 0.019688797464557723, "original_dtype": "float32"}}, {"name": "22974", "shape": [1, 1, 256, 256], "dtype": "float32", "quantization": {"dtype": "uint8", "min": -0.7914780240432888, "scale": 0.006232110425537707, "original_dtype": "float32"}}, {"name": "22976", "shape": [256], "dtype": "float32", "quantization": {"dtype": "uint8", "min": -2.26442598361595, "scale": 0.018714264327404546, "original_dtype": "float32"}}, {"name": "22978", "shape": [4], "dtype": "int32"}, {"name": "22980", "shape": [4], "dtype": "int32"}, {"name": "PartitionedCall/PartitionedCall/PartitionedCall/tf.strided_slice_7/ones_like", "shape": [4], "dtype": "int32"}, {"name": "22982", "shape": [3, 3, 128, 128], "dtype": "float32", "quantization": {"dtype": "uint8", "min": -0.46010712244931384, "scale": 0.005169742948868695, "original_dtype": "float32"}}, {"name": "22984", "shape": [128], "dtype": "float32", "quantization": {"dtype": "uint8", "min": -2.485012503231273, "scale": 0.02958348218132468, "original_dtype": "float32"}}, {"name": "22986", "shape": [3, 3, 128, 128], "dtype": "float32", "quantization": {"dtype": "uint8", "min": -0.6985832520559723, "scale": 0.004449574853859696, "original_dtype": "float32"}}, {"name": "22988", "shape": [128], "dtype": "float32", "quantization": {"dtype": "uint8", "min": -3.092367067524031, "scale": 0.05331667357800054, "original_dtype": "float32"}}, {"name": "PartitionedCall/PartitionedCall/PartitionedCall/tf.concat_3/concat/axis", "shape": [], "dtype": "int32"}, {"name": "22994", "shape": [1, 1, 384, 256], "dtype": "float32", "quantization": {"dtype": "uint8", "min": -0.4772836579995997, "scale": 0.003944493041319006, "original_dtype": "float32"}}, {"name": "22996", "shape": [256], "dtype": "float32", "quantization": {"dtype": "uint8", "min": -1.9624164875815895, "scale": 0.015699331900652716, "original_dtype": "float32"}}, {"name": "22998", "shape": [1, 1, 256, 128], "dtype": "float32", "quantization": {"dtype": "uint8", "min": -0.49306004444758095, "scale": 0.004143361718046899, "original_dtype": "float32"}}, {"name": "23000", "shape": [128], "dtype": "float32", "quantization": {"dtype": "uint8", "min": 0.23401892185211182, "scale": 0.011914260247174431, "original_dtype": "float32"}}, {"name": "PartitionedCall/PartitionedCall/PartitionedCall/tf.concat_4/concat/axis", "shape": [], "dtype": "int32"}, {"name": "23002", "shape": [1, 1, 512, 256], "dtype": "float32", "quantization": {"dtype": "uint8", "min": -0.341117064742481, "scale": 0.003018735086216646, "original_dtype": "float32"}}, {"name": "23004", "shape": [256], "dtype": "float32", "quantization": {"dtype": "uint8", "min": -7.921794822169285, "scale": 0.059562367083979585, "original_dtype": "float32"}}, {"name": "PartitionedCall/PartitionedCall/PartitionedCall/tf.concat_12/concat/axis", "shape": [], "dtype": "int32"}, {"name": "23090", "shape": [1, 1, 384, 256], "dtype": "float32", "quantization": {"dtype": "uint8", "min": -1.0351866881052652, "scale": 0.00869904779920391, "original_dtype": "float32"}}, {"name": "23092", "shape": [256], "dtype": "float32", "quantization": {"dtype": "uint8", "min": -2.5064482754352047, "scale": 0.018032001981548234, "original_dtype": "float32"}}, {"name": "23094", "shape": [4], "dtype": "int32"}, {"name": "23096", "shape": [4], "dtype": "int32"}, {"name": "PartitionedCall/PartitionedCall/PartitionedCall/tf.strided_slice_15/ones_like", "shape": [4], "dtype": "int32"}, {"name": "23098", "shape": [3, 3, 128, 128], "dtype": "float32", "quantization": {"dtype": "uint8", "min": -0.44878126686694575, "scale": 0.0038688040247150494, "original_dtype": "float32"}}, {"name": "23100", "shape": [128], "dtype": "float32", "quantization": {"dtype": "uint8", "min": -2.551107079375024, "scale": 0.02040885663500019, "original_dtype": "float32"}}, {"name": "23102", "shape": [3, 3, 128, 128], "dtype": "float32", "quantization": {"dtype": "uint8", "min": -0.7562913179397582, "scale": 0.006464028358459472, "original_dtype": "float32"}}, {"name": "23104", "shape": [128], "dtype": "float32", "quantization": {"dtype": "uint8", "min": -2.938190460205078, "scale": 0.021764373779296874, "original_dtype": "float32"}}, {"name": "PartitionedCall/PartitionedCall/PartitionedCall/tf.concat_14/concat/axis", "shape": [], "dtype": "int32"}, {"name": "23110", "shape": [1, 1, 384, 256], "dtype": "float32", "quantization": {"dtype": "uint8", "min": -1.3948913999632293, "scale": 0.010035189927793016, "original_dtype": "float32"}}, {"name": "23112", "shape": [256], "dtype": "float32", "quantization": {"dtype": "uint8", "min": -2.747121419626124, "scale": 0.015520459997887705, "original_dtype": "float32"}}, {"name": "23114", "shape": [3, 3, 256, 64], "dtype": "float32", "quantization": {"dtype": "uint8", "min": -1.553474357548882, "scale": 0.009302241661969354, "original_dtype": "float32"}}, {"name": "23126", "shape": [64], "dtype": "float32", "quantization": {"dtype": "uint8", "min": -1.8205244615966198, "scale": 0.011821587412965065, "original_dtype": "float32"}}, {"name": "23138", "shape": [3, 3, 64, 64], "dtype": "float32", "quantization": {"dtype": "uint8", "min": -1.4997669107773726, "scale": 0.012498057589811437, "original_dtype": "float32"}}, {"name": "23150", "shape": [64], "dtype": "float32", "quantization": {"dtype": "uint8", "min": -0.28743311797871307, "scale": 0.006843645666159835, "original_dtype": "float32"}}, {"name": "23162", "shape": [1, 1, 64, 5], "dtype": "float32", "quantization": {"dtype": "uint8", "min": -1.5072610294117648, "scale": 0.008191636029411765, "original_dtype": "float32"}}, {"name": "23176", "shape": [5], "dtype": "float32", "quantization": {"dtype": "uint8", "min": -7.27734375, "scale": 0.010814950980392157, "original_dtype": "float32"}}, {"name": "PartitionedCall/PartitionedCall/PartitionedCall/tf.concat_15/concat/axis", "shape": [], "dtype": "int32"}, {"name": "PartitionedCall/PartitionedCall/PartitionedCall/tf.compat.v1.transpose_2/transpose/perm", "shape": [4], "dtype": "int32"}, {"name": "PartitionedCall/PartitionedCall/PartitionedCall/tf.reshape_2/Reshape/shape", "shape": [3], "dtype": "int32"}, {"name": "PartitionedCall/PartitionedCall/PartitionedCall/tf.concat_16/concat/axis", "shape": [], "dtype": "int32"}, {"name": "23206", "shape": [3], "dtype": "int32"}, {"name": "23208", "shape": [3], "dtype": "int32"}, {"name": "PartitionedCall/PartitionedCall/PartitionedCall/tf.strided_slice_17/StridedSlice/strides", "shape": [3], "dtype": "int32"}, {"name": "PartitionedCall/PartitionedCall/PartitionedCall/output0/concat/axis", "shape": [], "dtype": "int32"}]}]}